AcroBotWeights/ppo_actor.pth (torch, 21852 bytes, 6 tensors)

layer1.weight f4 [64, 6]
0	0xbed56f0a	-0.4168628
1	0xbe9eb1db	-0.30995068
2	0xbedcbf9d	-0.4311494
3	0x3dee15bc	0.11625239
4	0x3df00ac2	0.11720802
5	0x3e559b29	0.2085997
6	0xbe82bc84	-0.2553445
7	0xbed5706f	-0.41687343
8	0xbe18f66f	-0.14937757
9	0x3eb62da7	0.35581705
10	0x3c7a2b04	0.015269045
11	0xbe9bb961	-0.3041487
12	0x3eaf8747	0.34282896
13	0xbba9b5e9	-0.005179156
14	0xbe6db76f	-0.23214506
15	0xbebad927	-0.364938
16	0xbec61c0c	-0.38693273
17	0x3d5077bd	0.05089544
18	0xbd634f9c	-0.055495843
19	0xbebfada4	-0.37437165
20	0xbecf5848	-0.4049704
21	0x3be752da	0.007059437
22	0xbcf4dfdc	-0.0298919
23	0x3e2d43b9	0.16920365
24	0xbebacc87	-0.36484167
25	0x3e0581d3	0.13037805
26	0xbd99d168	-0.07510644
27	0xbe2b4d76	-0.16728768
28	0xbe0ff084	-0.14056593
29	0x3ea81265	0.32826534
30	0x3e90f963	0.28315267
31	0xbe221820	-0.15829515
32	0xbcae37be	-0.021266814
33	0x3e9b5735	0.3033997
34	0x3dde64c9	0.10859067
35	0x3eb1bb69	0.34713295
36	0xbe30185c	-0.17196792
37	0x3d216c89	0.039410148
38	0x3ecf8e27	0.4053814
39	0xbe5eebb9	-0.21769609
40	0x3e2f991f	0.17148255
41	0xbe3e1e5f	-0.18566273
42	0x3e4779ec	0.19480103
43	0x3da808a7	0.08204775
44	0xbd3ecd40	-0.04658246
45	0xbe0c2f2a	-0.13689867
46	0x3ea8a7d1	0.32940534
47	0xbec8715c	-0.39148986
48	0xbc465434	-0.0121050365
49	0x3e5559e0	0.20835066
50	0x3eb18465	0.34671322
51	0xbea1d65f	-0.31608865
52	0xbea307ac	-0.3184179
53	0x3eb4e0a5	0.3532764
54	0xbeb475c4	-0.35246098
55	0x3dc593ec	0.096473545
56	0xbc798f39	-0.015231901
57	0xbeb81ca2	-0.35959345
58	0xbeb57357	-0.3543956
59	0x3dfef0a6	0.12448244
60	0xbe0013c3	-0.12507538
61	0xbe1f71dc	-0.15570778
62	0xbed04c67	-0.4068329
63	0xbeabbd82	-0.3354302
64	0x3ca4f904	0.020138271
65	0x3e7e1689	0.24813284
66	0x3e956878	0.29181266
67	0xbdc43736	-0.09580843
68	0x3e6efdfd	0.23339076
69	0x3d859f90	0.06524575
70	0xbe1abd6b	-0.1511132
71	0xbecf8357	-0.40529892
72	0x3e9d874f	0.30767295
73	0x3e2df694	0.16988593
74	0x3ee3245a	0.44363672
75	0x3ec811e1	0.3907614
76	0xbcf95ff5	-0.030441264
77	0xbe85ccfb	-0.2613295
78	0xbee20485	-0.44144073
79	0xbd9a5a71	-0.075367816
80	0xbdc04fb0	-0.09390199
81	0xbcf6dce7	-0.030134631
82	0x3d3548ff	0.044259068
83	0x3eb91107	0.36145803
84	0xbea0dc22	-0.31417948
85	0x3eb42611	0.35185292
86	0x3e1e7f0d	0.15478154
87	0xbf031d9d	-0.5121706
88	0xbeef370f	-0.46721694
89	0x3eccfce7	0.400367
90	0xbe5ee919	-0.21768607
91	0xbec7ce25	-0.39024463
92	0xbdcda311	-0.10040868
93	0x3d3370d2	0.043808766
94	0xbe069129	-0.13141312
95	0xbec49100	-0.38391876
96	0x3ea24330	0.31691885
97	0xbdf1b1b7	-0.118014745
98	0xbe44eca7	-0.192309
99	0xbe6d389f	-0.2316613
100	0xbea1a625	-0.3157207
101	0x3e990eef	0.29894206
102	0xbe4282ad	-0.18995161
103	0x3c0a60c8	0.008445926
104	0x3e0c4bf8	0.13700855
105	0xbebf8ffc	-0.3741454
106	0xbee06f0b	-0.4383472
107	0xbe4a87cf	-0.1977837
108	0x3e942655	0.28935495
109	0x3eecca7f	0.46248242
110	0x3e277563	0.16353373
111	0xbecb6047	-0.3972189
112	0xbd6d2789	-0.05789903
113	0x3edd547a	0.43228513
114	0xbec03e09	-0.3754733
115	0x3e15a48b	0.1461355
116	0x3da8aadf	0.08235716
117	0x3e965880	0.29364395
118	0xbec9db9b	-0.39425358
119	0xbece555e	-0.40299505
120	0x3e4706f1	0.19436242
121	0xbd1d4837	-0.038398948
122	0x3e931804	0.2872926
123	0xbe5dacad	-0.21647902
124	0xbeedbeb3	-0.46434554
125	0x3e8e2afd	0.27767172
126	0x3d7ac96e	0.061227255
127	0x3e64d188	0.22345555
128	0xbe94d996	-0.29072255
129	0xbb53b684	-0.0032304833
130	0xbec4f07a	-0.3846472
131	0x3db5c390	0.08875191
132	0xbc86a417	-0.016435666
133	0xbe9aa163	-0.30201253
134	0xbe82f43b	-0.25576958
135	0xbe927ec1	-0.2861233
136	0xbe34a0f8	-0.1763953
137	0x3d527056	0.051376663
138	0x3bead808	0.007166866
139	0xbe255666	-0.1614624
140	0xbdd84648	-0.1056028
141	0xbcf60789	-0.03003289
142	0xbf0a7169	-0.540793
143	0x3db0c6b9	0.08631653
144	0x3dfc0041	0.12304736
145	0x3e05e09d	0.13073964
146	0xbe5fd6ee	-0.21859333
147	0xbed8d0d0	-0.4234681
148	0xbeab762f	-0.33488604
149	0x3c997ba8	0.018735722
150	0xbd9bb6dd	-0.07603238
151	0x3dbb8c71	0.091576464
152	0x3e6fd0f6	0.23419556
153	0x3d551cfd	0.0520296
154	0x3d5695b5	0.052388866
155	0x3dd154c7	0.10221248
156	0xbd9f3bb0	-0.07775056
157	0xbea4a496	-0.3215682
158	0x3d45db13	0.04830463
159	0xbea1346a	-0.314853
160	0xbea40229	-0.32032898
161	0xbdcf354d	-0.10117588
162	0x3e63b1a6	0.22235736
163	0x3ce23fc0	0.027618289
164	0x3e90e34f	0.28298423
165	0xbe2545e2	-0.1613994
166	0xbecf3f9f	-0.40478227
167	0x3d380aef	0.044932302
168	0x3e1aa3aa	0.15101495
169	0xbed545e5	-0.41654888
170	0x3cde1fdc	0.027114801
171	0x3ddad186	0.10684495
172	0x3f093ac2	0.5360528
173	0x3d7b41dc	0.061342105
174	0x3e9b4bac	0.3033117
175	0xbed773d0	-0.42080545
176	0xbde4dcc3	-0.111749195
177	0x3e5727e3	0.2101131
178	0x3e807fe6	0.2509758
179	0xbe9cef9f	-0.30651566
180	0xbef1f07c	-0.47253788
181	0x3dbe34a1	0.09287382
182	0xbeb43058	-0.35193133
183	0xbe4245e9	-0.18971981
184	0x3e5a940c	0.21345538
185	0x3c51d021	0.012805969
186	0x3d933329	0.071874924
187	0x3e78c0b3	0.24292259
188	0x3e845ec7	0.2585356
189	0x3e66569f	0.22493981
190	0x3d539cce	0.051663212
191	0xbee6647e	-0.44998544
192	0x3ba69f8f	0.005084939
193	0xba3b632a	-0.00071482605
194	0xbe6bd9ce	-0.23032305
195	0xbe0419f7	-0.1290053
196	0x3ee825d1	0.45341352
197	0xbe4a1a84	-0.19736677
198	0x3cf48e17	0.02985291
199	0x3e3e356b	0.18575065
200	0x3d1cf606	0.038320564
201	0x3dcad293	0.09903445
202	0xbee45226	-0.44593924
203	0x3ed2ef7f	0.41198346
204	0x3ec36386	0.38161868
205	0xbec1efda	-0.37878305
206	0xbe66e3fe	-0.2254791
207	0xbe1fa7b5	-0.15591319
208	0xbe55972d	-0.2085845
209	0xbe4a6d92	-0.1976836
210	0xbe5737f4	-0.21017438
211	0x3e79f326	0.2440916
212	0x3d1e709c	0.03868161
213	0x3ebc9dbb	0.3683909
214	0xbe2428fc	-0.1603126
215	0x3d65414c	0.055970475
216	0x3e631b77	0.22178446
217	0x3cd798f0	0.026318043
218	0x3d9e404b	0.07727107
219	0xbea1861f	-0.3154764
220	0xbeba1da0	-0.36350727
221	0x3ea108c7	0.3145201
222	0xbee56fbc	-0.4481181
223	0xbee99903	-0.4562455
224	0xbe533bad	-0.20628233
225	0x3eabca99	0.33553007
226	0xbe896845	-0.26837364
227	0xbd4bc81a	-0.04975138
228	0x3ec81a93	0.39082775
229	0x3e945525	0.2897121
230	0x3c83b4cf	0.016077427
231	0x3e7d0748	0.24709809
232	0xbe0071ba	-0.12543383
233	0xbe4189e5	-0.18900259
234	0x3e1d97be	0.15389916
235	0x3e4427b8	0.19155777
236	0x3ebfc63c	0.37455928
237	0x3eac9a7c	0.33711612
238	0x3d2a56dc	0.04158674
239	0x3e71cabc	0.23612493
240	0x3dcf07cb	0.10108908
241	0x3e3d7606	0.18502054
242	0xbdf739cd	-0.120715715
243	0xbea65731	-0.32488397
244	0x3efa482d	0.4888319
245	0x3e71e796	0.236235
246	0xbd9c3085	-0.07626442
247	0x3ed2ffe0	0.41210842
248	0xbeaacccd	-0.33359376
249	0x3e657410	0.22407556
250	0xbde769f2	-0.11299504
251	0x3ed6fd49	0.41990116
252	0x3e8bee22	0.27330118
253	0xbe60ad02	-0.21940997
254	0xbe2cb1d5	-0.16864713
255	0xbd9cae66	-0.07650451

layer1.bias f4 [64]
0	0x3ea85cc2	0.3288327
1	0x3ee9c52e	0.4565825
2	0xbc6db4fc	-0.014508482
3	0xbea5a2dc	-0.32350814
4	0xbe3bdf75	-0.18346961
5	0xbe7e155f	-0.2481284
6	0x3e4172d0	0.18891454
7	0x3ef8a04b	0.48559794
8	0x3e607dd6	0.21923003
9	0xbe8a555b	-0.27018246
10	0xbdfc3110	-0.123140454
11	0x3df0e10a	0.11761673
12	0xbdf14f68	-0.11782724
13	0xbe4363e6	-0.19081077
14	0xbe6867e1	-0.22695877
15	0x3f09a56d	0.53768045
16	0x3df84b42	0.12123729
17	0x3e963b05	0.29341903
18	0x3ea4a9c6	0.32160777
19	0x3cb8ac28	0.022543028
20	0x3e9c2c2e	0.30502456
21	0xbe861b77	-0.2619283
22	0xbe6c80ce	-0.2309601
23	0x3ed6ecfd	0.41977683
24	0xbe58ae49	-0.21160235
25	0xbebc7014	-0.3680426
26	0xbea46e17	-0.32115242
27	0x3eadfa64	0.33980095
28	0x3d218ec3	0.03944279
29	0x3e34d881	0.17660715
30	0xbe1508fd	-0.1455421
31	0x3eabfce7	0.33591387
32	0x3d92eb9f	0.071738474
33	0x3eab9130	0.33509207
34	0x3e225f96	0.15856776
35	0xbd849c8e	-0.06475173
36	0x3e1c7cd0	0.15281987
37	0x3e198492	0.14991978
38	0xbe990c8d	-0.29892388
39	0x3e841b5b	0.2580212
40	0xbe35f56f	-0.17769407
41	0xbd8b06da	-0.06788416
42	0x3d8465c8	0.06464726
43	0x3d397d81	0.045285705
44	0x3dea7847	0.11448722
45	0x3dd2ace5	0.10286883
46	0xbea7293e	-0.32648653
47	0x3ea59d8c	0.3234676
48	0xbe526423	-0.20546012
49	0x3df40d38	0.11916584
50	0xbe8ad11e	-0.2711267
51	0xbe4395d7	-0.19100128
52	0x3ed28d60	0.41123486
53	0xbd924f56	-0.071440384
54	0xbe3fa81e	-0.18716475
55	0x3e7d695e	0.24747226
56	0x3e65bd78	0.22435558
57	0x3eb2665b	0.34843716
58	0xbebf07a9	-0.37310532
59	0xbe78adc2	-0.24285033
60	0xbd216aa8	-0.039408356
61	0x3e9eb18a	0.30994827
62	0xbd815949	-0.06315858
63	0xbdc46c87	-0.095910124

layer2.weight f4 [64, 64]
0	0x3e2ddcda	0.1697878
1	0x3e215573	0.15755253
2	0x3d435540	0.047688723
3	0x3dcca2e7	0.09992009
4	0xbc97fb74	-0.01855252
5	0xbdc1dc1d	-0.094658114
6	0xbc652162	-0.01398501
7	0xbd964353	-0.0733706
8	0x3c8bab14	0.01704935
9	0x39149996	0.00014171595
10	0x3ddb18e7	0.10698109
11	0xbdd8d659	-0.105877586
12	0xbe120029	-0.14257874
13	0x3d9a2290	0.075261235
14	0x3d9d419c	0.076785296
15	0x3e0a0097	0.13476788
16	0xbe04d08b	-0.12970178
17	0x3d14d80c	0.03633885
18	0x3d5051d1	0.050859276
19	0xbd63e68e	-0.055639796
20	0xbb3263b7	-0.002722008
21	0xbd12463e	-0.03571152
22	0x3d4302ab	0.047609966
23	0xbd4c59e5	-0.049890418
24	0x3d95f525	0.07322148
25	0x3dc919a8	0.09819347
26	0xbd33b727	-0.04387584
27	0xbe4f7dd6	-0.20262846
28	0x3e15d53d	0.14632125
29	0x3e1fdd58	0.1561178
30	0x3d8aec29	0.06783325
31	0xbdf51b81	-0.119681366
32	0x3d804fad	0.06265197
33	0x3caade62	0.020857994
34	0xbcc2e275	-0.023789624
35	0x3c17af18	0.009258054
36	0xb8fa4a31	-0.00011934748
37	0x3db2338c	0.08701238
38	0xbdd65d0e	-0.104669675
39	0xbce154bb	-0.027506223
40	0x3e29a2c0	0.1656599
41	0x3dc33d30	0.09533155
42	0x3e244418	0.160416
43	0xbcc2f6d7	-0.023799343
44	0x3e0dc635	0.13845141
45	0x3dcf398f	0.101184
46	0x3e122ef4	0.14275724
47	0xbd2586f7	-0.040411916
48	0x3e14ed8b	0.1454374
49	0x3e09f88c	0.1347372
50	0xbb8856be	-0.004160731
51	0xbc306742	-0.010766806
52	0xbdc71b24	-0.097219735
53	0x3dff1309	0.124548025
54	0x3d9801a7	0.0742219
55	0xbe058b88	-0.13041508
56	0x3e30ad5a	0.17253628
57	0xbe168c84	-0.1470204
58	0xbdd99a0f	-0.106250875
59	0xbbf7f49c	-0.0075670015
60	0x3d86e684	0.06586936
61	0xbb5b9f6d	-0.0033511773
62	0x3dfd4c9f	0.1236813
63	0xbc49d48b	-0.012318741
64	0xbd31e8ee	-0.04343503
65	0xbdf6d540	-0.12052393
66	0x3d588bb2	0.0528676
67	0xbe0aff89	-0.13574041
68	0xbcb0c3e1	-0.021577777
69	0x3def8079	0.11694426
70	0xbc97cc80	-0.01853013
71	0xbacfc1f5	-0.001585065
72	0x3d8ab889	0.067734785
73	0x3e2d007c	0.16894716
74	0xbdc39c6f	-0.09551322
75	0xbdf8bbce	-0.12145196
76	0x3c35034c	0.011048149
77	0x3c5cb0a5	0.01346985
78	0x3c0edcc0	0.008719623
79	0x3c318454	0.010834772
80	0x3cc56e90	0.024100572
81	0xbd53ec5c	-0.05173908
82	0x3e70698a	0.2347776
83	0x3c4e92b3	0.012608218
84	0x3e34f38f	0.17671035
85	0xbca4cedf	-0.020118175
86	0x3d6a442d	0.057193924
87	0x3e3d3ae9	0.18479504
88	0x3d9220be	0.07135151
89	0xbcd8ae66	-0.026450347
90	0xbdc48a23	-0.0959666
91	0x3e20bd1a	0.15697137
92	0xbe68ff24	-0.22753578
93	0xbbe802ae	-0.0070803976
94	0x3cbcb03f	0.02303326
95	0x3cd8d924	0.026470728
96	0xbd395733	-0.045249175
97	0x3e7e8836	0.24856648
98	0x3dff7c4d	0.1247488
99	0xbd289a10	-0.04116255
100	0x3e85ece2	0.2615729
101	0x3d284839	0.041084502
102	0x3d8c4c5b	0.06850501
103	0x3e093131	0.13397671
104	0x3cfee373	0.031114316
105	0x3c927b77	0.017881138
106	0xbc87ffb8	-0.016601428
107	0xbe0e224f	-0.13880275
108	0xbd276699	-0.04086933
109	0xbe632b9d	-0.22184606
110	0xbe0fd6e6	-0.14046821
111	0xbd96484d	-0.07338009
112	0xbcde0973	-0.027104115
113	0xbdebd18d	-0.11514578
114	0xbcee8789	-0.029117363
115	0xbde623d2	-0.11237301
116	0x3e0bfe28	0.13671172
117	0x3d445ff2	0.047943063
118	0xbe135b34	-0.1439026
119	0x3c9806ad	0.01855787
120	0x3c3eb72c	0.011640351
121	0x3d78ee9a	0.060774423
122	0x3b90b0cc	0.004415607
123	0xbc2862bf	-0.010277449
124	0x3d656527	0.05600467
125	0x3d97b905	0.074083365
126	0x3c093ec9	0.008376786
127	0x3e556437	0.2083901
128	0x3d64898e	0.055795245
129	0x3e465f00	0.19372177
130	0xbdab2ebb	-0.083585225
131	0xbd0f720d	-0.035020877
132	0xbc098bc1	-0.008395136
133	0x3cb36969	0.02190085
134	0x3d9d6172	0.07684602
135	0xb937e30c	-0.00017536822
136	0xbe4b3da8	-0.19847739
137	0x3d81f222	0.06345011
138	0xbd9e1fb9	-0.07720894
139	0x3d03c0c2	0.03216625
140	0x3e40b4f0	0.18819022
141	0xbd022080	-0.031769276
142	0xbe0ff3c1	-0.14057828
143	0x3df89a57	0.12138813
144	0xbdcf5dad	-0.10125289
145	0x3dfd5ed5	0.123716034
146	0xbb59d931	-0.0033241028
147	0x3e331161	0.17487098
148	0xbdaf1324	-0.08548573
149	0x3d4e62b7	0.05038711
150	0x3d961d3e	0.07329796
151	0x3d9ddc33	0.07708015
152	0x3d1619de	0.036645763
153	0xbe0f858f	-0.14015792
154	0xbce28b27	-0.027654244
155	0xbc75413c	-0.014969166
156	0x3e385167	0.17999803
157	0x3dadffa3	0.084960245
158	0x3d5ea24e	0.054354005
159	0x3d7561e2	0.0599078
160	0x3e024162	0.12720254
161	0xbcdfbb9d	-0.02731114
162	0x3ccd5633	0.025065517
163	0x3d3138ed	0.04326718
164	0xbe125f8d	-0.14294262
165	0xbc78e7cc	-0.015191983
166	0x3d025c41	0.03182626
167	0x3d616d75	0.055036027
168	0x3da4d1b6	0.08047812
169	0xbd404608	-0.046941787
170	0x3e153def	0.14574407
171	0x3e5ace5b	0.21367781
172	0xbdf47721	-0.119367845
173	0x3d21798f	0.039422568
174	0x3e06d8fc	0.1316871
175	0xbd2b4872	-0.041817136
176	0x3e03b445	0.12861736
177	0x3dc91bbe	0.098197445
178	0x3b2edc40	0.0026681572
179	0x3d658202	0.05603219
180	0x3d734523	0.059392106
181	0xbc96f7f7	-0.018428786
182	0x3e4c06bb	0.19924442
183	0x3e0f54a0	0.13997126
184	0x3e023f06	0.12719354
185	0x3d90d51d	0.07071898
186	0xbd388f01	-0.045058254
187	0x3e09fd08	0.1347543
188	0xbe051c93	-0.12999181
189	0x3cce3509	0.025171774
190	0x3de51fda	0.11187716
191	0x3b1f9270	0.0024348758
192	0xbbd3a390	-0.006458707
193	0x3e93f35c	0.28896606
194	0xbd1329cb	-0.03592853
195	0x3e007587	0.12544833
196	0xbdc71c00	-0.097221375
197	0x3d8484ef	0.064706676
198	0x3d75083a	0.0598223
199	0x3e359e5f	0.17736195
200	0xbe9dab1f	-0.30794618
201	0xbe033931	-0.12814786
202	0x3c62cf63	0.01384339
203	0x3df255f2	0.11832799
204	0x3dc84eb7	0.09780639
205	0x3ded901f	0.115997545
206	0xbe1f18d3	-0.15536813
207	0x3d84fe57	0.06493824
208	0xbd3e7776	-0.046500646
209	0x3db2d1c3	0.08731415
210	0xbc80ceb3	-0.015723562
211	0xbcc2adb5	-0.02376447
212	0xbdba9b9f	-0.091117136
213	0x3dc847b6	0.09779303
214	0x3d9f1699	0.07767982
215	0xbd0e299e	-0.034707658
216	0x3d503dbc	0.050840124
217	0x3e1918c4	0.14950854
218	0xbd470e13	-0.048597407
219	0x3c0ba0be	0.008522211
220	0x3e7aa539	0.2447709
221	0x3e7bc3ff	0.24586485
222	0x3e079811	0.13241602
223	0x3e4a51d1	0.19757773
224	0x3df7bd48	0.120966494
225	0xbdab0e31	-0.08352316
226	0x3d4ed83d	0.05049919
227	0xbb5d4bf7	-0.0033767202
228	0xbe5da1f2	-0.21643808
229	0x3dab6abc	0.08369967
230	0x3da5fa76	0.08104412
231	0x3d836b2a	0.06416924
232	0xbd19549e	-0.037434213
233	0xbdc44056	-0.095825836
234	0xbb60edd2	-0.003432144
235	0x3d11a86b	0.035561007
236	0xbdc0ce5f	-0.09414362
237	0x3e14688f	0.14493011
238	0x3bf9daf2	0.0076249773
239	0xbd91d03a	-0.07119794
240	0x3dc44fe4	0.095855504
241	0x3e199b83	0.1500073
242	0xbd73d20e	-0.059526496
243	0x3db74854	0.08949342
244	0x3d2d3c43	0.0422938
245	0xbbb56923	-0.005536215
246	0x3deefc6b	0.11669239
247	0x3df4f44b	0.11960658
248	0x3e3ccd42	0.18437675
249	0x3e1c5ce4	0.1526981
250	0x3e089f50	0.13342023
251	0xbd580a1c	-0.052744016
252	0xbea11355	-0.31460062
253	0x3e569bf3	0.20957927
254	0x3c4ecdb8	0.012622289
255	0xbd8664b5	-0.06562177

layer2.bias f4 [64]
0	0xbde24041	-0.11047412
1	0x3dee2333	0.116278075
2	0x3dd38538	0.10328144
3	0x3df47261	0.119358785
4	0xbbd31bd1	-0.006442525
5	0x3d0721cd	0.03299122
6	0x3dd3a0d9	0.10333414
7	0x3d1db81f	0.03850567
8	0x3d3a93de	0.045551173
9	0x3e33955a	0.17537442
10	0xbdbbdb1d	-0.09172652
11	0x3d412beb	0.047161024
12	0x3db5cb5f	0.088766806
13	0xbcf99a51	-0.030469092
14	0x3ca60336	0.020265203
15	0xbdca87c7	-0.09889179
16	0x3de3ef5b	0.11129638
17	0x3dea6d62	0.11446644
18	0x3dc8dd16	0.09807794
19	0x3ddad640	0.10685396
20	0x3e0af37b	0.13569443
21	0x3dfe8b2f	0.12428891
22	0x3dfd31f2	0.12363042
23	0xbdb3b621	-0.08774973
24	0x3d8af96c	0.06785855
25	0xbdf3ab0f	-0.11897861
26	0x3dfa17f0	0.12211597
27	0x3d7d8d3f	0.06190228
28	0xbcbbf6ff	-0.022944925
29	0x3e15948d	0.14607449
30	0x3d863f35	0.065550245
31	0xbe16d6b2	-0.14730337
32	0x3e0e2976	0.13883004
33	0x3c115054	0.008869249
34	0xbc66cdb9	-0.014087134
35	0x3db552ed	0.088537075
36	0x3de7e64f	0.11323225
37	0x3d8f6480	0.07001591
38	0x3c391925	0.011297499
39	0x3e287729	0.16451706
40	0xbd0ba385	-0.03409149
41	0x3c83a5fd	0.01607036
42	0x3d50b264	0.050951377
43	0xbdfc1c4c	-0.12310085
44	0x3dd7ea28	0.10542709
45	0x3e1d79d1	0.153785
46	0x3e403d01	0.18773271
47	0x3db15d9c	0.08660433
48	0xbd06b88f	-0.032890853
49	0xbd02dcca	-0.031948842
50	0x3d28fa61	0.041254405
51	0xbe050aa7	-0.12992345
52	0xbdfe1a1c	-0.12407324
53	0x3e2cb8b7	0.16867338
54	0x3d3abe24	0.04559149
55	0x3c9b3c62	0.018949691
56	0x3e014012	0.12622097
57	0xbdea2526	-0.11432867
58	0xbc8c88ff	-0.017155169
59	0xbdc0be7f	-0.09411334
60	0x3dd1ab9d	0.10237811
61	0x3e2af37f	0.16694449
62	0x3d078b21	0.033091668
63	0x3d07a7af	0.0331189

layer3.weight f4 [3, 64]
0	0x3d7df975	0.06200548
1	0xbe00c270	-0.12574172
2	0x3e4b99ca	0.19882885
3	0x3df3d62c	0.119060844
4	0x3e8af471	0.2713962
5	0xbe213b30	-0.15745234
6	0x3e2d693d	0.16934676
7	0xbe7a85b6	-0.24465069
8	0x3d03de56	0.032194458
9	0x3e7b7265	0.24555357
10	0xbe45c480	-0.1931324
11	0x3d0847de	0.033271663
12	0x3e4bf024	0.19915825
13	0xbe6474e2	-0.22310212
14	0x3dcde582	0.10053541
15	0xbdc0bb37	-0.094107084
16	0xbd7c08b4	-0.061531737
17	0xbd685a02	-0.056726463
18	0x3de90299	0.113774486
19	0x3db77905	0.089586295
20	0x3dc61789	0.09672458
21	0xbe84c6f9	-0.25933054
22	0x3ddb35c4	0.10703614
23	0xbdb76b7f	-0.0895605
24	0x3c3906c0	0.011293113
25	0x3d87212f	0.06598126
26	0xbe16a319	-0.14710654
27	0x3e813c03	0.25241098
28	0xbd5e0ed4	-0.05421336
29	0x3ccb6044	0.024826176
30	0x3e1face5	0.15593298
31	0xbd6fe3a9	-0.058566723
32	0x3e5ffa70	0.21872878
33	0xbe5120dc	-0.20422691
34	0xbd0240e0	-0.03180015
35	0x3e893f20	0.26805973
36	0x3ddd7661	0.108135946
37	0xbe046163	-0.12927775
38	0x3e3945ab	0.18092982
39	0x3e80eba3	0.25179777
40	0x3e63f25c	0.22260422
41	0xbabcda84	-0.0014408384
42	0xbdb199f2	-0.08671941
43	0x3dcda5dc	0.10041401
44	0x3d4df77a	0.05028484
45	0x3ea14dc9	0.31504658
46	0xbe4f1fd6	-0.20226988
47	0xbe4fb895	-0.20285256
48	0x3e31c1c5	0.17359073
49	0xbdec35ba	-0.11533685
50	0x3e17be2e	0.14818642
51	0xbe08dab6	-0.13364682
52	0xbc769170	-0.015049323
53	0xbe146804	-0.14492804
54	0x3e70a17c	0.23499101
55	0x3e65cb6d	0.22440882
56	0xbe46e89c	-0.19424671
57	0x3d0c2964	0.03421916
58	0xbe3e3295	-0.18573983
59	0xbcbba11d	-0.022903973
60	0x3e3caea5	0.18425997
61	0x3d9e59fc	0.07732007
62	0x3d2485ce	0.04016667
63	0x3beefd8e	0.0072934097
64	0x3df08040	0.11743212
65	0xbda61a47	-0.08110481
66	0xbe2fed24	-0.17180306
67	0xbe2ab378	-0.16670024
68	0x3db906ce	0.09034501
69	0x3ca11ed1	0.019668015
70	0xbe3743fe	-0.1789703
71	0x3dea8de4	0.11452845
72	0xbdf88bf0	-0.12136066
73	0xbe175607	-0.1477891
74	0xbd193d78	-0.037412137
75	0xbe7c990a	-0.24667755
76	0xbe4d2959	-0.20035304
77	0x3da2ef3d	0.07955787
78	0xbe4b0ef0	-0.19829917
79	0x3d383990	0.04497677
80	0xbd79bd29	-0.060971413
81	0x3e11bbee	0.14231846
82	0x3de60d7d	0.112330414
83	0xbe0d84c1	-0.13820173
84	0xbe884acf	-0.26619574
85	0xbc987534	-0.018610574
86	0xbcdd08b4	-0.026981689
87	0xbdf32cca	-0.11873777
88	0xbcea2fc3	-0.028587228
89	0xbc8315bc	-0.016001575
90	0x3de481d0	0.11157572
91	0xbe4299aa	-0.1900393
92	0x3e12f878	0.14352596
93	0xbe4048fe	-0.18777844
94	0xbe519dec	-0.20470399
95	0x3dd2234d	0.10260639
96	0xbe58cc38	-0.21171653
97	0x3d9850c9	0.074372835
98	0xbd232cd7	-0.039837684
99	0xbdfdaab0	-0.12386072
100	0xbdde51f6	-0.108554766
101	0xbe8e9fa1	-0.27856162
102	0xbe21e0a3	-0.15808348
103	0xbd863ffd	-0.065551735
104	0xbdd45e76	-0.103695795
105	0xbc1b661c	-0.009484794
106	0xbddb2cd4	-0.1070191
107	0x3dfa4328	0.1221984
108	0xbe747dc0	-0.23876095
109	0xbd8816f9	-0.06645007
110	0xbe6838f0	-0.2267797
111	0xbe16cbe5	-0.14726217
112	0xbe00879c	-0.12551731
113	0x3e0db0d4	0.13836986
114	0xbe7c35d8	-0.24629915
115	0xbdd127fc	-0.102127045
116	0xbdd4ef4c	-0.10397205
117	0xbe9531ef	-0.2913966
118	0xbe3702e7	-0.17872201
119	0xbe154280	-0.14576149
120	0x3da7979f	0.08183216
121	0xbdb3c4a2	-0.08777739
122	0x3cd0f503	0.025507456
123	0x3ddc0704	0.107435256
124	0x3d3d40d7	0.046204414
125	0xbe3e7a49	-0.18601336
126	0x3e0ead9d	0.13933416
127	0xbccb1fab	-0.024795374
128	0xbde4578b	-0.1114951
129	0x3e877656	0.2645747
130	0xbd3c5937	-0.04598352
131	0xbe4f009b	-0.20215075
132	0xbe3d63b7	-0.1849507
133	0xbd434f14	-0.047682837
134	0xbdba77e0	-0.091048956
135	0x3dc58ee9	0.096463986
136	0x3c32cf8f	0.010913744
137	0xbdb3d853	-0.08781495
138	0xbc26de66	-0.01018486
139	0x3e137edc	0.14403862
140	0xbe42c12f	-0.19019006
141	0x3e5f9cdc	0.21837181
142	0x3db9d7c7	0.090743594
143	0xbe1970cd	-0.14984436
144	0xbe0bc0a4	-0.13647705
145	0x3e0a9b62	0.13535836
146	0xbe15365b	-0.14571516
147	0xbd6afa3f	-0.05736756
148	0xbde25330	-0.11051023
149	0x3dfa8f85	0.122344054
150	0xbe4b5fcf	-0.19860767
151	0xbd960212	-0.07324614
152	0xbe8342c0	-0.25636864
153	0xbd263a29	-0.04058281
154	0x3e507661	0.20357658
155	0xbe5b3faf	-0.21411012
156	0x3dce9fd5	0.10089079
157	0x3db9382a	0.090439156
158	0xbd7de5db	-0.061986785
159	0x3dad5702	0.08463861
160	0xbe70e2a2	-0.23523954
161	0xbce437e4	-0.027858682
162	0x38a84f6e	8.025659e-05
163	0xbe2b133b	-0.16706555
164	0xbe5647c8	-0.2092582
165	0x3dfe26b7	0.12409728
166	0x3c14b26f	0.009075745
167	0xbd7464b1	-0.05966634
168	0x3d0e7468	0.034778982
169	0x3e7372e9	0.23774303
170	0x3d8312cf	0.06400072
171	0xbe5f5fd6	-0.21813902
172	0x3db50b0b	0.08839997
173	0xbe5a0850	-0.21292233
174	0x3e95669e	0.29179853
175	0x3e319cf9	0.17345037
176	0x3dd05cbf	0.1017394
177	0xbd18aadd	-0.037272323
178	0x3d129e8a	0.035795726
179	0x3df78680	0.12086201
180	0x3d9f2345	0.07770399
181	0x3e88c01d	0.2670907
182	0xbd770f83	-0.060317528
183	0xbda23491	-0.079201825
184	0x3dc99284	0.09842399
185	0x3d0c0e0c	0.034193084
186	0x3dc04906	0.09388928
187	0xbd159e02	-0.03652764
188	0xbe067a31	-0.1313255
189	0xbe83f550	-0.25773096
190	0xbbf50379	-0.0074772206
191	0x3dae7741	0.0851884

layer3.bias f4 [3]
0	0xbcbb9a01	-0.022900583
1	0xbd0c26c0	-0.034216642
2	0x3d376e4b	0.044782918
