AcroBotWeights/ppo_critic.pth (torch, 21350 bytes, 5 tensors)

layer1.weight f4 [64, 6]
000000 f3 49 4c bf f5 1a 83 3e ef 84 8d bf 31 f3 77 be
       -0.7980034 0.25606504 -1.1056193 -0.24213864
000010 c2 62 73 3d 73 bf 88 3d eb 69 27 3f 07 98 2e 3f
       0.059420355 0.06677141 0.65395993 0.68200725
000020 9b 1d 21 3f 23 44 d0 be a4 b1 35 be 34 f2 a5 bd
       0.629358 -0.40676984 -0.17743546 -0.08102837
000030 67 b7 90 3e 0c 2d b7 3e 92 cb c6 bc e6 45 1e bf
       0.28264925 0.35776556 -0.024266992 -0.61825407
000040 8a a9 f7 3d 16 01 9e be 35 18 12 bd cf 9f 3e 3f
       0.12092884 -0.30860204 -0.035667617 0.744626
000050 ff ba c1 3e f9 72 4b bf d4 7a 58 be 4d 1b 30 bd
       0.3783798 -0.7947231 -0.21140605 -0.042994786
000060 b0 35 c3 3b 85 c9 80 3e 75 1b 0f 3f ca 8a 22 be
       0.005957328 0.25153747 0.5590127 -0.15873256
000070 cf 48 10 be db 5e d8 be 43 1e 9a 3d 54 74 00 bf
       -0.14090274 -0.4225987 0.07525303 -0.501775
000080 30 27 db 3d 2f 38 1d 3f 0d d1 ae bd 36 a7 9d 3e
       0.10700834 0.61413854 -0.08535967 0.30791634
000090 08 37 ad 3e 94 02 07 bf ea 13 27 be 5c 38 58 3f
       0.33831048 -0.5273831 -0.1631619 0.84461
0000a0 5e de 23 3e 4e 9c 86 be d6 7a 21 3f 5c 5c dc 3e
       0.16002795 -0.26291126 0.6307806 0.43039215
0000b0 5e e1 dd 3e 41 ca 01 bf 5c 19 8f 3d 53 07 e3 3d
       0.43336004 -0.5069924 0.06987259 0.11085381
0000c0 d8 bd 32 3d 1b 5d 19 3f ee f2 74 3e 75 8a 7d bd
       0.04363808 0.5990769 0.23920795 -0.06189962
0000d0 2b 7d c0 be 5a 5f 64 be c8 8f 0a 3f d6 e2 37 bf
       -0.37595496 -0.22301999 0.5412564 -0.718305
0000e0 09 df bb bd 3c ba 3d 3f f3 97 4b 3e f6 59 41 bd
       -0.091734 0.74112296 0.19882183 -0.047204934
0000f0 99 cd 83 3c 2b 6c dc 3e 67 02 ef 3e 9a f0 2f bf
       0.016089248 0.43051276 0.4668152 -0.68726504
000100 e5 0c 1b 3d c2 f9 7d ba 54 2b 07 3f f8 8d fa 3e
       0.037854094 -0.0009688401 0.5280049 0.4893644
000110 51 91 2a 3f 75 93 28 bf 95 3f 1f be 3b 82 89 be
       0.66627985 -0.6585 -0.15551598 -0.2685717
000120 59 bd 37 3f 72 c6 8f 3e cd a1 02 3f 89 be 10 bf
       0.71773297 0.2808109 0.5102814 -0.56540734
000130 a7 17 34 3d 4f 7d 60 be 0a 4a 2b 3a 12 0f b8 3e
       0.04396787 -0.21922801 0.0006534165 0.35948998
000140 3f 71 c1 3e ee 41 da be 1f e7 01 bd 3f 2c 06 be
       0.37781712 -0.42628425 -0.031714555 -0.13102816
000150 70 04 0c bd 67 d5 9c be d9 b8 cf 3e c2 0c 27 3f
       -0.03418392 -0.30631563 0.40570715 0.6525384
000160 bf 5f 83 3d f2 2d 29 3e 27 92 b9 3e 2a 57 1e bf
       0.064147465 0.16521433 0.36244318 -0.6185175
000170 0c c7 04 3e 62 c7 ba 3e 80 b9 38 3c 1a 49 e0 bd
       0.12966555 0.36480242 0.011274695 -0.10951443
000180 60 f1 94 3e 38 5a 1f be ad 32 ed 3e 66 8d 19 3f
       0.29090405 -0.1556176 0.46327725 0.5998138
000190 de 36 d8 be d8 00 c3 3e 5f 87 9f be d4 94 9d 3e
       -0.4222936 0.3808658 -0.31157967 0.3077761
0001a0 1c 31 5a bf 07 fc 48 bd bf 02 81 bd 3d 06 09 be
       -0.85231185 -0.049068477 -0.06299352 -0.13381286
0001b0 1d 47 10 be 08 ee 0b 3d 09 91 18 3f 5f 16 2a be
       -0.14089628 0.03416255 0.59596306 -0.16610096
0001c0 26 63 df be 16 d1 c1 be 16 a1 01 3f 0d b4 28 bf
       -0.43630332 -0.37854832 0.5063642 -0.65899736
0001d0 0c 89 44 3d 2a aa 02 3f 89 c9 9f 3d cf 5d f7 bd
       0.04798226 0.510409 0.07802112 -0.120784394
0001e0 03 0b 0b 3f 3b 76 40 3e 2d 96 fb 3c 86 9f c9 3d
       0.5431368 0.18795101 0.030711258 0.0984488
0001f0 08 1f 74 be cd 8e 05 bd 8f 27 34 3f 29 e6 14 3e
       -0.23839962 -0.03260689 0.7037286 0.14540924
000200 5c 08 04 3e 39 52 65 3e 84 61 35 be 2d 64 dc 3c
       0.12893814 0.22394647 -0.1771298 0.026903236
000210 45 cd ce 3d 88 23 5e 3e 7f ae 0c 3f 94 85 2c bf
       0.10097746 0.21693242 0.5495376 -0.67391324
000220 68 f9 cd bd 0a fb 3c be 6d a7 2c 3f ce f6 8e be
       -0.10057336 -0.18455139 0.6744297 -0.27922672
000230 0f fe eb 3e 02 af 0a be 27 8c 21 be ba 69 c4 bc
       0.4609227 -0.13543323 -0.1577612 -0.023976196
000240 10 b6 a1 3e cf fb 16 bf 95 b1 08 3f 9e a2 26 3f
       0.31584215 -0.5897798 0.5339597 0.65091884
000250 6b 7c 08 be 3e ee 30 be 9a 7e b3 3e 12 16 c4 3e
       -0.13328712 -0.17278382 0.35057527 0.38298088
000260 35 22 99 bc c2 8d c0 be 01 21 1d 3e a9 14 5d be
       -0.018693069 -0.37608153 0.15344621 -0.21589912
000270 f7 2c e7 3e fe c4 e6 be 83 4d d9 3e 8f da d6 3d
       0.45151493 -0.45072168 0.4244195 0.104909055
000280 83 09 43 be f3 45 75 bd 63 9e c4 3e 1d ab 0e 3f
       -0.19046597 -0.059881162 0.3840209 0.5572985
000290 82 8a 9d 3e 1a ab 13 bf 52 7c 0f be 99 54 2c 3e
       0.30769736 -0.57682955 -0.14012268 0.16829146
0002a0 c4 25 0c 3f 7c e3 36 3f 45 0d c6 3e b8 27 28 bf
       0.54745126 0.71440864 0.38682 -0.65685606
0002b0 14 fc 28 3e 42 7d 7b 3e 82 20 36 3f e3 32 96 be
       0.1650241 0.24559501 0.71143353 -0.29335698
0002c0 2b bd 1d 3f 98 ba ce 3e 0b d5 b2 3d 1f 71 46 be
       0.6161677 0.40376735 0.08732041 -0.1937909
0002d0 df e9 f4 3c 14 19 dd be 7f ab 99 3e 36 7f 3b 3f
       0.029896675 -0.43183196 0.30013654 0.73240983
0002e0 50 71 43 3e 43 58 a6 be cb 9d 66 3d 44 3e 06 3f
       0.19086194 -0.32489213 0.056302827 0.5243876
0002f0 06 bd 4a 3e 8b bd e6 be 78 06 e6 be 4d a0 87 be
       0.19798669 -0.45066485 -0.4492681 -0.26489487
000300 be 67 02 be 4a 7a 12 3f 1e 18 96 3d b6 45 12 bf
       -0.12734887 0.5721785 0.07328819 -0.5713762
000310 8d bf fb be 5b 9d 9e 3e a8 e8 d3 3e 0a d7 01 bf
       -0.4916958 0.30979428 0.4138844 -0.5071875
000320 64 b3 b3 3e 10 5e 91 bd 6a 95 06 3e 77 86 d2 bd
       0.35097802 -0.07098019 0.13142934 -0.102795534
000330 ab f9 06 3d 4b 55 20 3f 78 ea 29 3f 21 73 cd be
       0.032952946 0.62630147 0.66373396 -0.401269
000340 31 30 af 3e c7 33 55 be 3f a4 30 3f b4 6f cb 3e
       0.34216455 -0.20820533 0.6900062 0.3973366
000350 31 e0 18 3f 9f d7 ba be 0e 82 14 3e c3 58 10 be
       0.5971709 -0.3649263 0.14502737 -0.1409636
000360 4f b9 a0 3c 10 8a 0a 3f 1e 1e eb bc 1c 7d 98 be
       0.019619612 0.54116917 -0.028700884 -0.2978295
000370 ce aa ad 3e 16 5e 81 be fe cf db 3d 15 e1 9a be
       0.33919376 -0.25267094 0.10733031 -0.3024985
000380 b6 a4 d8 3e c9 c6 0b 3f a3 4e 29 bc 04 9c 37 3e
       0.42313164 0.546002 -0.01033369 0.17930609
000390 eb 2a bd 3e 3a ad 3c bf 7d 17 a9 3e 09 cf 02 3f
       0.36946806 -0.7370182 0.33025733 0.5109716
0003a0 93 2f ac 3d ea 65 1a be dd 51 9a bd eb 09 01 3f
       0.084075116 -0.1507794 -0.075351454 0.5040576
0003b0 40 36 17 3f b9 a2 b2 be a5 b4 bc 3e bb 33 f1 bd
       0.59067154 -0.34889773 0.3685657 -0.11777445
0003c0 64 4d 16 3f 72 c6 a2 bd c0 7b 25 be 01 65 01 be
       0.5871184 -0.07948007 -0.16160488 -0.12636186
0003d0 8e 87 68 be 18 9b 37 bd 08 c0 12 be 04 bd 3b 3f
       -0.2270796 -0.044825643 -0.14331067 0.7333529
0003e0 59 6c 38 3e c7 ac cf be 85 02 bc 3d 1b 9c 3b 3e
       0.18010081 -0.40561506 0.09180168 0.18321268
0003f0 6f 06 11 3e a6 8d 1b bf e5 56 ef 3e f7 f3 06 3f
       0.1416261 -0.60763013 0.46745983 0.5271601

layer1.bias f4 [64]
000000 37 4d 7a 3e b3 99 84 3e 54 88 37 3e d6 b4 fd 3d
       0.24443518 0.25898513 0.17923099 0.12388007
000010 81 e2 26 be e0 3d be 3e 7d d6 1c 3f c4 c3 97 3d
       -0.16297342 0.37156582 0.61264783 0.07410386
000020 e6 3d 60 3c 6b fc a9 3d ff c4 99 3e d6 e1 b9 bd
       0.013686633 0.08300098 0.3003311 -0.09076278
000030 82 17 ac 3e c4 0a cc 3e 6f fa af 3e 5f 4a 74 bd
       0.33611685 0.39851964 0.34370753 -0.05964124
000040 6a 79 c0 3c 5b 3e 5f 3d 58 2b 14 bd bc 80 e2 3e
       0.023495395 0.054502826 -0.03617415 0.44238842
000050 70 24 2b 3f fb 45 35 3f 34 a3 7b 3e f0 c5 dd 3e
       0.66852474 0.70809907 0.24573976 0.43315077
000060 bd 44 87 3e 49 9f 92 3c 84 d1 04 3f 85 c3 17 3f
       0.2641963 0.017898219 0.51882195 0.59282714
000070 eb 3b ce 3e 5a 13 1e 3f 79 de ac 3e e1 90 04 be
       0.4028009 0.6174828 0.33763483 -0.12945892
000080 99 de 69 3e ca 6c 05 3f 1f bb 7d 3e 7b 4b 31 3f
       0.2283882 0.52119124 0.24778412 0.692558
000090 57 44 d5 3e eb c0 04 3f 1e 3d 4e bd 73 a2 3f bc
       0.41653702 0.5185687 -0.050351255 -0.011696446
0000a0 e7 4f 0c 3f 08 d3 a2 3e 7a 0d a1 3e 0e 97 0e 3f
       0.5480942 0.3180163 0.31455594 0.5569924
0000b0 49 42 0c 3f 3e 74 06 3f 56 b5 45 3e b0 67 66 3a
       0.54788643 0.5252112 0.19307455 0.00087892544
0000c0 c4 89 59 3e cb 72 8d 3e 60 8e d4 3d 64 9a 34 3f
       0.2124396 0.27626643 0.103787184 0.7054808
0000d0 1e 84 19 bc 13 e8 44 3e dd 9b 8b 3d 6f 22 e2 3e
       -0.009369878 0.19229154 0.06816838 0.44166896
0000e0 6d 26 6e 3e b7 42 5b 3e ff ff 19 3f 74 07 8b bd
       0.23256846 0.21412168 0.60156244 -0.06788531
0000f0 c4 a0 17 3f 10 9d 16 bd ec a9 19 3f da e5 ff 3e
       0.59229684 -0.03677088 0.60024905 0.4998005

layer2.weight f4 [64, 64]
000000 de e1 ba 3e 51 f8 fb 3d 4e 8f 0b bd c3 00 23 3e
       0.36500448 0.12303222 -0.034072213 0.1591826
000010 71 15 3f bd 30 dd 93 3d 7b f0 74 3d 2e ec 14 3e
       -0.046651307 0.072199225 0.059799653 0.1454322
000020 53 12 03 3e d4 e9 de 3d e3 55 8c 3e 8f ae 36 3d
       0.12799959 0.10884443 0.27409276 0.044600066
000030 4c 04 8b 3e 59 a1 55 3e 25 2f 93 3e 30 68 6f 3e
       0.27151716 0.2086233 0.28746906 0.23379588
000040 38 e0 5e 3c 03 9f 49 3e ce 03 1e 3d 9a eb b3 3e
       0.013603263 0.19689564 0.038577847 0.35140687
000050 96 23 ae 3e 40 0e 26 3e 9b 5d 9b 3e 98 8c 1f 3e
       0.34011525 0.16216373 0.30344853 0.15580976
000060 a9 1c b0 3e 73 bc 92 3c 94 20 80 3e 57 64 2a 3e
       0.34396866 0.017912125 0.25024855 0.16639839
000070 78 5d fa 3d 17 74 11 3e 3f f1 1a 3e d6 54 c3 bb
       0.12224859 0.14204441 0.1513109 -0.005961041
000080 4e 23 10 be c7 bf 46 3e b9 22 9e 3d c4 3c ed 3d
       -0.14075968 0.19409095 0.077214666 0.11583856
000090 ae d4 84 3d 2e b2 8b 3d 53 b1 2f 3e 5e 96 af 3d
       0.06485878 0.068210945 0.17157488 0.08573602
0000a0 8d 75 b0 3e 36 0c af bc 6b 2c 42 3e 4b 1c 86 3e
       0.34464684 -0.021368127 0.18962257 0.2619346
0000b0 0d 51 4a 3e 1f 70 f8 3d 90 65 ba 3d 86 33 1d bd
       0.19757481 0.121307604 0.09101403 -0.038379215
0000c0 17 cb 74 3e b9 9c 58 3e d4 35 15 3e 6a 58 94 3e
       0.23905598 0.21153535 0.14571315 0.28973705
0000d0 bf 6f 9d bd 52 ae a4 3d bf d6 2b 3e 1c f1 a2 3e
       -0.076873295 0.080410615 0.16781138 0.31824577
0000e0 b9 af c5 3c 10 5b 2e 3e fa f5 84 3e 21 02 e1 3d
       0.024131643 0.17026925 0.25968915 0.10986734
0000f0 e0 62 19 3d 8b ed 0b be 8b 71 55 3e a3 44 8f 3e
       0.03744781 -0.13664834 0.20844094 0.27982053
000100 e2 08 ad 3e 1b c3 f3 3d c7 0b 40 bd 69 12 45 3d
       0.3379584 0.11902448 -0.04688623 0.04811326
000110 38 45 49 bb 19 7d e2 3d a7 9b d1 3d 09 65 92 3e
       -0.0030711424 0.11059017 0.102347665 0.2859271
000120 db a4 1a 3e dd e2 8d 3d 9e a5 ab 3e 07 a2 82 3d
       0.1510195 0.06928036 0.33524793 0.063785605
000130 69 9c 78 3d 1b a9 85 3e cb d5 13 3d fb 1c 7a 3e
       0.06069604 0.2610558 0.03609256 0.24425118
000140 0d ac cf bc 0f 21 c4 3d f7 e0 be bd 38 4e 32 3e
       -0.025350595 0.09576618 -0.093202524 0.1741265
000150 97 fe 6f 3e 46 c2 9c 3e 59 b2 84 3d c9 26 81 3e
       0.23436962 0.3061697 0.064793296 0.25224903
000160 f0 b0 94 3e b7 dd 67 bd db c3 ab 3d 84 f6 2d 3b
       0.29041243 -0.056607928 0.08386966 0.002654464
000170 48 11 6b 3e 41 63 4c 3e 42 98 fd 3d ba 07 0a 3e
       0.22955811 0.19959737 0.123825565 0.1347951
000180 be 95 8f 3d 4a 8c d6 3d b0 39 05 bd 80 71 d5 3d
       0.07010983 0.10475977 -0.03252572 0.10422039
000190 fc 3c 56 bd 67 79 99 3d 36 eb 06 3e 1f 61 a2 3d
       -0.052304253 0.07493859 0.13175663 0.07928681
0001a0 1e 03 0c 3e dd 9d 0c 3e 8b 46 0f 3e 0a 32 97 3d
       0.13673064 0.13732095 0.13991754 0.07382591
0001b0 45 15 37 3e 7a 96 fe 3d 51 88 15 3e 74 d1 69 bd
       0.17879207 0.12431045 0.14602782 -0.057084516
0001c0 f5 b2 01 3e f9 2d 0e 3e 79 6c 74 3e 8b 4d 7e 3e
       0.12665923 0.13884725 0.23869504 0.24834268
0001d0 0d a7 6d 3d 96 ea ab bc dd ee f2 3d 7b 7d 99 3e
       0.05802064 -0.020985883 0.11861966 0.29978547
0001e0 e3 9d 23 3e 27 71 5a 3e d8 05 3a 3e 9d e6 75 3e
       0.15978198 0.21332227 0.18166292 0.24013753
0001f0 a9 2b 2c 3e e2 d5 d3 3d bc 8b 99 3e 3b 78 0a 3e
       0.1681353 0.10343529 0.2998942 0.13522427
000200 83 20 b0 3e 56 cc 51 3e 31 4e 0d 3e 4b b6 8c 3d
       0.34399804 0.20488104 0.13799359 0.06870707
000210 90 e5 05 bd 4e d8 53 bb 66 e2 b2 3a c2 51 22 3e
       -0.03268963 -0.0032324973 0.0013647794 0.158515
000220 c6 40 09 3e ee 96 10 3e 4c 26 72 3e 35 11 49 3e
       0.13403615 0.14120075 0.23647422 0.1963547
000230 2f a1 88 3e d7 d1 83 3e 15 d6 db 3d 4d bc a0 3e
       0.26685473 0.25746033 0.10734192 0.31393662
000240 d0 72 a4 3d 2c 64 eb 3d ed 3b a3 bd 0b b9 0f 3e
       0.08029711 0.11493716 -0.07970414 0.14035432
000250 ec cc 63 3e 3f 1e a3 3e 8e 38 39 3e 55 a5 12 3e
       0.2224614 0.31859013 0.1808798 0.14320882
000260 bb 87 b6 3e 05 26 d7 3d 95 06 1c 3e fa 3d 0a 3e
       0.3565043 0.105052985 0.15236886 0.13500205
000270 34 08 dc 3d eb d9 f8 3d e6 37 8c ba 71 37 35 3e
       0.10743752 0.121509396 -0.0010697811 0.1769693
000280 e1 91 11 be 81 0e 3d 3e 9f ad 2a 3e 1a f4 31 3e
       -0.14215805 0.18462564 0.16667794 0.17378274
000290 7f 7a a4 3d 6a 7d 03 3e 3b 72 8b 3d b0 62 e2 3c
       0.08031177 0.1284081 0.06808897 0.027634948
0002a0 d7 72 ab 3e 8f 48 b3 3d ba 54 97 3d eb c2 c5 3d
       0.33486053 0.08754074 0.07389207 0.09656318
0002b0 56 ac d7 3d 14 12 f3 3d ca 09 9d 3e 01 41 c0 3c
       0.10530917 0.118686825 0.3067153 0.023468496
0002c0 ea f0 ed 3d 6f 76 97 3e 82 c4 b2 3d a1 99 9d 3e
       0.11618216 0.29582545 0.08728887 0.30781272
0002d0 c0 26 07 3e f6 4c 2b 3e cc 06 02 3e 43 1c 08 3e
       0.13198376 0.16728577 0.12697905 0.13292031
0002e0 4c c8 87 bb ba 0c 64 3e f8 1f 95 3e f5 ed b9 3d
       -0.0041437503 0.2227048 0.29125953 0.0907859
0002f0 c3 ae cd 3b 27 bf cb 3d 45 84 41 3e 17 1e 20 3e
       0.0062769367 0.09948569 0.18898113 0.15636478
000300 43 d3 0b 3f 93 54 0e 3e 2c 8c a7 3d 11 b5 52 3e
       0.54619235 0.1389945 0.081810325 0.20576884
000310 8b 50 7d bd c9 c7 5f 3d 84 12 24 3e c4 01 d0 3d
       -0.06184439 0.05463389 0.16022688 0.10156587
000320 f3 b2 bb 3d dc 6b 11 3e 47 df 67 3e fb 32 3f 3e
       0.09164991 0.14201301 0.22643767 0.18671791
000330 87 c9 55 3e 4d a6 50 3e e4 9c cc 3d ec e1 7c 3e
       0.20877658 0.20375939 0.09990862 0.24695557
000340 3a b8 96 3b 7e 33 02 3e a1 89 d6 bb fd 51 79 3e
       0.0045995982 0.12714955 -0.0065471684 0.24347682
000350 e0 80 9c 3e 52 41 3b 3e eb 72 9f 3d 5d 7b a1 3e
       0.30567074 0.18286636 0.07785591 0.3153943
000360 d1 f6 ad 3e 4f bb 51 3d a7 b9 4a 3e a6 07 90 3d
       0.33977368 0.051204022 0.19797383 0.07032709
000370 87 00 71 3e 51 6a ec 3d 50 bd 34 3e 45 09 ad bc
       0.23535357 0.11543716 0.17650342 -0.021122584
000380 51 e8 ad 3d a6 ad 1f 3e 28 eb 3b bd af d8 03 3e
       0.084915765 0.15593585 -0.04587856 0.12875627
000390 1d ed 08 3e 72 c3 93 3e c8 d7 06 3c 7b 7a 01 be
       0.13371702 0.2886005 0.008230157 -0.12644379
0003a0 62 e5 64 3e 0f 11 09 bd 81 c3 3f 3e ad 51 e7 3d
       0.22353128 -0.033463534 0.18726923 0.11294875
0003b0 15 a0 68 3d c5 07 9e 3d 9e f3 81 3e 2b 9e aa 3d
       0.05679329 0.07716326 0.25381178 0.083309494
0003c0 c7 83 3e 3e f2 94 33 3e 5d 4a 31 3e f0 6f ca 3d
       0.18604957 0.17537287 0.17313524 0.09884632
0003d0 45 ee c6 bd b9 34 b2 bb b2 11 2d 3d eb 50 54 3e
       -0.09713415 -0.005438414 0.042253204 0.20733993
0003e0 b7 8b 95 3d d4 10 17 3e a3 29 a6 3d 32 ce 91 3e
       0.07302039 0.14752513 0.0811341 0.28477627
0003f0 1f b5 b7 bb 3f 01 81 3d a8 d6 8f 3e d3 28 e0 3d
       -0.005606308 0.06299066 0.28093457 0.109452866

layer2.bias f4 [64]
000000 a1 05 0b 3e 5c 9e 11 3e 44 c1 37 3e ec dc 75 3e
       0.13576366 0.14220566 0.17944819 0.24010056
000010 74 7c 87 3e 71 80 52 3e b6 8f 6b 3e 0f 0c 85 3d
       0.26462138 0.20556809 0.2300404 0.064964406
000020 bd 66 60 be af c1 60 3e 4b 4a a1 3e 6b 47 ef bd
       -0.21914192 0.21948884 0.31501994 -0.11683544
000030 b5 1c 6d 3e da 3b 90 bd f2 cf 26 bd 70 ec 96 3d
       0.23155482 -0.07042666 -0.040725656 0.073693156
000040 a0 87 8b be d0 84 63 3e cc 97 e3 3d f4 c4 8b bd
       -0.2725191 0.22218633 0.11112937 -0.06824675
000050 42 07 9d 3e 20 62 d8 bd db 93 22 3c 32 29 0e 3e
       0.306696 -0.10565591 0.009922947 0.13882902
000060 85 8a 70 be ab 58 1f 3d 08 37 07 be 9d 29 f2 bd
       -0.23490341 0.03890292 -0.13204587 -0.11824343
000070 bb bc 1b 3e 32 3a 36 3e f6 2b 32 bd 82 9f 17 bd
       0.15208714 0.17795637 -0.043498956 -0.037017353
000080 f6 cf ad 3d 0d 2a 98 3e a2 e6 04 be b1 3e e5 3d
       0.08486931 0.29719582 -0.12978604 0.11193598
000090 9a dc 8b 3e 6f 07 84 3e c6 e9 27 be 12 b4 01 be
       0.27316743 0.2578692 -0.16397771 -0.12666348
0000a0 69 de a0 3e 6c c4 88 3e 92 8a 8b 3e 66 1a 81 be
       0.31419685 0.26712358 0.27254158 -0.25215453
0000b0 12 37 b9 3d f4 42 91 3d d3 22 85 3e 27 47 ea bd
       0.09043707 0.070928484 0.2600313 -0.114393525
0000c0 16 1f 97 bd 44 19 b2 bc 20 68 e2 bc ba 56 4b bd
       -0.07378976 -0.021740563 -0.027637541 -0.049643256
0000d0 d2 e1 89 bd a7 de fd bd 4c 39 b5 bd 94 30 a6 3e
       -0.06732525 -0.12395983 -0.08848819 0.32458937
0000e0 82 17 70 3e f6 36 cc 3d 47 e3 31 3d cd 12 93 3e
       0.23446468 0.099714205 0.04342964 0.2872528
0000f0 0e a5 88 3e 4c a9 a7 3d 85 24 dd 3d df be 5f bd
       0.26688427 0.08186588 0.10797981 -0.05462539

layer3.weight f4 [1, 64]
000000 9c 2f 53 be b0 f1 94 be 30 49 4c be 97 28 7b be
       -0.2062363 -0.29090643 -0.19949794 -0.24527203
000010 d7 8d 6b be 7c ce 94 be 5d 3d 56 be b6 84 82 be
       -0.23003326 -0.29063785 -0.20921846 -0.25491875
000020 a0 0d 12 3f 40 3d 74 be 17 2c 49 be 48 fb bd 3d
       0.5705204 -0.2385149 -0.19645725 0.09276444
000030 78 e0 52 be bf d6 57 3b 3d b0 8f 3d 14 15 7d be
       -0.2059344 0.0032934395 0.07016037 -0.24715072
000040 c2 e3 d4 3e 6c 9b 37 be 0f 88 9a 3d 36 d0 4d 3e
       0.41580015 -0.17930382 0.07545482 0.20098957
000050 8a 87 43 be e8 ec fb 3e d5 44 c5 3e f5 d1 64 be
       -0.19094673 0.49204183 0.38529077 -0.22345717
000060 1d d1 c2 3e 73 db 91 3d 04 58 db 3d ab c2 81 3e
       0.38050166 0.07121935 0.10710147 0.25343832
000070 80 79 4c be fc d0 8f be 74 4d 21 3d 35 1f 8a 3d
       -0.19968224 -0.2808913 0.039380506 0.067442335
000080 99 9c 9e be 56 db 59 be 13 b2 3d 3e 23 1d 84 be
       -0.3097885 -0.21275076 0.18524961 -0.2580348
000090 a7 cc 8b be e9 e2 80 be 42 35 ca 3e ca 5a d0 3d
       -0.27304575 -0.2517312 0.39493757 0.10173567
0000a0 0a 7c 4b be b5 e5 40 be 0a 36 8b be 01 e3 d8 3e
       -0.19871536 -0.18837626 -0.27189666 0.4236069
0000b0 a7 73 58 be a8 61 3a 3c 5c cd 87 be 7c aa c7 3e
       -0.21137868 0.011375822 -0.26523864 0.38997257
0000c0 e3 d3 e3 3d 39 62 38 3e b3 fd 54 3d 0d 7c a0 3c
       0.111243986 0.18006219 0.05199976 0.019590402
0000d0 76 7e a5 bd 60 7a 9c 3d 3b 1f 80 3d c8 36 48 be
       -0.08080761 0.07640529 0.06255957 -0.19552147
0000e0 5a 7e 94 be 56 52 3e 3d a0 c6 91 3e 1c 24 45 be
       -0.2900265 0.04646524 0.2847185 -0.19252056
0000f0 cd 5a 93 be 28 5e 5b 3e 83 8f 76 be 37 80 a7 3e
       -0.28780213 0.21422637 -0.24078183 0.32715008
