BipedalWeights/ppo_critic.pth (torch, 25958 bytes, 5 tensors)

layer1.weight f4 [64, 24]
-0.07726508 0.14378701 -0.24242319 -1.1102692 0.34016857 -0.4196273 -0.009303149 0.76888037
0.24311726 0.39438272 0.073618405 -0.13273932 0.11144453 0.040443297 0.026386667 0.08819491
0.10259264 0.12611803 0.044569604 0.07733859 -0.09729987 -0.09203125 0.2793493 -0.13492163
-0.09913897 -0.1942622 -0.42227826 -0.46842536 0.29173836 0.33750188 -0.19881488 -0.25249285
0.23312281 0.38388747 0.20154446 -0.023801079 0.124074265 0.061476644 0.0523112 -0.18568517
-0.04568087 0.15388887 0.121573985 -0.20683219 0.17036106 -0.10171493 0.22224964 0.008079344
-0.15737097 0.06569035 -0.7216734 -1.1370738 0.83841276 0.02164235 0.23694375 0.32277796
0.2807238 0.44762564 0.18784995 -0.09460556 0.23437193 0.3957855 0.06783115 0.047148224
-0.093761675 -0.12855692 -0.24995284 0.021444775 -0.037487503 -0.27811745 0.0500314 -0.28000635
0.027798152 0.0031639105 -0.21239537 -0.7798026 0.08128231 -0.4880965 0.16818936 0.6857824
0.110088795 0.4109585 -0.046589263 0.061107434 0.06230325 0.34745258 -0.127019 -0.16082437
-0.16944018 0.051029142 -0.037772305 -0.20012392 -0.05856173 -0.22186002 0.01031648 0.010925895
-0.184131 -0.33742496 -0.35364196 -0.27539453 0.45719865 0.22802415 -0.2185745 0.16808945
0.20084314 0.04358881 -0.19583853 0.10541026 0.400591 0.3261958 0.1465768 0.17652354
-0.04376107 0.11710123 0.06877626 0.08657175 0.22133462 0.17746097 0.115932144 -0.11312208
-0.02557835 -0.34025735 -0.17534263 -0.776326 0.29356873 0.3348811 -0.15189412 0.20458613
0.51179373 0.032005943 0.006391395 0.13444512 0.34512964 0.31264016 0.13445313 0.045695197
0.06296562 0.04769822 -0.10216643 -0.008327947 0.11040558 -0.077411026 0.0877007 -0.016529227
-0.21498913 -0.2367329 -0.30141854 -0.5460981 0.20652184 0.20002003 0.015293821 0.14998886
0.37837544 0.16767646 -0.1603993 -0.328588 0.12903944 0.16740222 -0.13846546 -0.09340205
-0.017007887 -0.08094888 0.07523126 0.06751498 0.1600136 -0.17786449 0.13165979 0.24361059
-0.086378366 -0.3256049 -0.81660134 -1.3581269 0.9609933 0.008803648 0.21171181 0.32635078
0.24408597 0.4985068 0.1027246 0.0012656404 0.2080194 0.38562706 -0.21036205 -0.08247733
-0.14012153 -0.040448766 -0.24359488 0.034437116 -0.076263614 -0.23743014 0.18947382 -0.06572989
-0.24853717 0.028769404 -1.0897188 -1.3235569 0.97554153 0.09946214 -0.00492632 0.23740274
0.19874589 0.62833023 0.20134869 -0.16208823 0.09256472 0.39317653 -0.02302674 0.09465673
0.093601115 -0.08151378 0.11719302 -0.16432168 -0.19636366 -0.17359784 0.04803135 -0.09571324
-0.04716768 -0.3122897 0.05446654 -0.55454105 0.440419 0.058986254 -0.025182024 0.029011762
0.43449286 0.029324 -0.100594595 -0.29554147 0.001726587 0.28099146 -0.06760056 0.09813747
0.055089936 0.095427796 -0.12487948 -0.16372226 -0.05571127 -0.18613562 0.2327357 0.19886328
0.06448714 0.06648858 -0.38748598 -0.29434213 0.11066496 0.09905569 0.22380751 0.16037042
0.10859278 0.21856792 -0.46933514 0.07335901 0.6011277 0.17091914 0.11455339 -0.23475346
00000000: 273d 9ebd e73c 133e c93d 78be 4d1d 8ebf
00000010: 932a ae3e 64d9 d6be 3c6c 18bc 58d5 443f
00000020: bbf3 783e 88ec c93e 3fc5 963d d1ec 07be
00000030: 083d e43d dfa7 253d da28 d83c 889f b43d
00000040: 171c d23d 1625 013e 9e8e 363d b263 9e3d
00000050: 2745 c7bd e17a bcbd df06 8f3e e528 0abe
00000060: 5f09 cbbd acec 46be db34 d8be 73d5 efbe
00000070: bb5e 953e 0ccd ac3e 2196 4bbe be46 81be
00000080: bfb7 6e3e e68c c43e ac61 4e3e 7bfa c2bc
00000090: a61a fe3d efce 7b3d 4544 563d 4124 3ebe
000000a0: dd1b 3bbd 0b95 1d3e c8fb f83d d1cb 53be
000000b0: 2173 2e3e eb4f d0bd 6995 633e 3a5f 043c
000000c0: db25 21be aa88 863d 97bf 38bf a28b 91bf
000000d0: 38a2 563f 4c4b b13c 62a1 723e 2743 a53e
000000e0: 08bb 8f3e 302f e53e bd5b 403e 8fc0 c1bd
000000f0: 32ff 6f3e 66a4 ca3e 0feb 8a3d 7f1e 413d
00000100: 1f06 c0bd 6da4 03be a3f3 7fbe f4ac af3c
00000110: 7f8c 19bd 6965 8ebe baed 4c3d fe5c 8fbe
00000120: f3b8 e33c 9c59 4f3b 2c7e 59be 25a1 47bf
00000130: 5777 a63d c9e7 f9be d539 2c3e 6f8f 2f3f
00000140: 3c76 e13d 2769 d23e 62d4 3ebd ca4b 7a3d
00000150: b131 7f3d 4ee5 b13e 4511 02be 25af 24be
00000160: ba81 2dbe ef03 513d 22b7 1abd 49ed 4cbe
00000170: 6dde 6fbd 462f 63be 7406 293c 8602 333c
00000180: d68c 3cbe f7c2 acbe 8f10 b5be 8300 8dbe
00000190: f115 ea3e 2a7f 693e fed1 5fbe a41f 2c3e
000001a0: d3a9 4d3e 2e8a 323d e589 48be 56e1 d73d
000001b0: 431a cd3e 2303 a73e 3b18 163e 96c2 343e
000001c0: cf3e 33bd c5d2 ef3d 91da 8c3d 884c b13d
000001d0: 8ba5 623e 54b8 353e d56d ed3d 8dac e7bd
000001e0: b089 d1bc 3636 aebe 058d 33be 4dbd 46bf
000001f0: a44e 963e 8975 ab3e 228a 1bbe 077f 513e
00000200: ea04 033f aa18 033d e86e d13b fbab 093e
00000210: d5b4 b03e 5f12 a03e 15ae 093e e32a 3b3d
00000220: 1ef4 803d 355f 433d a23c d1bd f171 08bc
00000230: 521c e23d ac89 9ebd 6d9c b33d 4d68 87bc
00000240: 1c26 5cbe 1c6a 72be 8853 9abe 16cd 0bbf
00000250: 767a 533e 0dd2 4c3e ef92 7a3c ae96 193e
00000260: 6dba c13e 61b3 2b3e b73f 24be b03c a8be
00000270: ea22 043e 7d6b 2b3e e4c9 0dbe 9349 bfbd
00000280: 2054 8bbc 87c8 a5bd d912 9a3d 4b45 8a3d
00000290: 9bda 233e 1c22 36be d3d1 063e 0e75 793e
000002a0: 24e7 b0bd afb5 a6be c90c 51bf 1ad7 adbf
000002b0: a803 763f 2d3d 103c fbca 583e 7317 a73e
000002c0: acf1 793e 493c ff3e 4661 d23d d8e3 a53a
000002d0: 0a03 553e e970 c53e 2669 57be e0e9 a8bd
000002e0: 057c 0fbe 9bad 25bd f070 79be ef0d 0d3d
000002f0: 1930 9cbd e320 73be 6d05 423e 649d 86bd
00000300: 8780 7ebe d0ad eb3c e87b 8bbf 506a a9bf
00000310: 17bd 793f ceb2 cb3d f86c a1bb b419 733e
00000320: 0b84 4b3e 40da 203f 5a2e 4e3e 75fa 25be
00000330: 9292 bd3d 6f4e c93e 93a2 bcbc 63db c13d
00000340: f1b1 bf3d b2f0 a6bd e502 f03d f143 28be
00000350: 8e13 49be a2c3 31be 85bc 443d 4e05 c4bd
00000360: e632 41bd 70e4 9fbe 4f18 5f3d 67f6 0dbf
00000370: 997e e13e 929b 713d 884a cebc 13aa ed3c
00000380: d975 de3e e338 f03c 8a04 cebd 3651 97be
00000390: a54e e23a 1dde 8f3e 2a72 8abd 4cfc c83d
000003a0: fca5 613d a66f c33d d0c0 ffbd cfa6 27be
000003b0: 8031 64bd 569a 3ebe 4452 6e3e d1a2 4b3e
000003c0: d511 843d 2a2b 883d 9064 c6be 03b4 96be
000003d0: 50a4 e23d b6dd ca3d cc2d 653e 2538 243e
000003e0: e465 de3d 45d0 5f3e b24c f0be 403d 963d
000003f0: 81e3 193f 6d05 2f3e f89a ea3d 3663 70be

layer1.bias f4 [64]
-0.04805226 0.05899588 -0.008295573 0.12121615 0.19875604 -0.110289596 0.20530097 -0.22183643
0.0669981 0.055007216 0.028967952 0.16170406 -0.113506705 -0.106386974 0.19358481 0.02147033
0.041080575 -0.12170163 0.22092986 -0.22592765 0.10300471 -0.10826212 -0.10263416 0.0035874625
-0.27519542 0.20140159 0.093342096 -0.20382975 0.29829833 0.04655064 0.0004420258 0.23821877
-0.0111436285 0.378372 0.2507162 -0.21027192 -0.059151135 -0.06332149 -0.06785142 -0.21032128
-0.20557457 0.20401984 0.014308528 -0.20003234 0.32038626 -0.17445016 0.18180215 0.017683754
0.24673697 -0.04458392 0.17211774 0.20255406 0.22769134 -0.2227069 0.093468994 0.16895644
-0.23592944 -0.16486664 0.2609156 -0.013806682 0.024027599 -0.42558783 0.00016696689 0.026026988
00000000: 72d2 44bd aaa5 713d 28ea 07bc 2c40 f83d
00000010: b486 4b3e 83df e1bd 6b3a 523e 1729 63be
00000020: 4d36 893d 3f4f 613d 334e ed3c c095 253e
00000030: 3476 e8bd 6ae1 d9bd 193b 463e 8ce2 af3c
00000040: 1b44 283d b43e f9bd 703b 623e 9459 67be
00000050: 22f4 d23d 88b8 ddbd dc31 d2bd a21b 6b3b
00000060: 6ae6 8cbe 383c 4e3e 242a bf3d bfb8 50be
00000070: 8fba 983e e2ab 3e3d b3bf e739 9fef 733e
00000080: c493 36bc fab9 c13e e05d 803e 8651 57be
00000090: 7648 72bd b3ae 81bd aff5 8abd 765e 57be
000000a0: 2482 52be 94ea 503e 516e 6a3c 47d5 4cbe
000000b0: ab09 a43e 10a3 32be 582a 3a3e 85dd 903c
000000c0: 9ea8 7c3e a19d 36bd a23f 303e 556a 4f3e
000000d0: eb27 693e 470d 64be ac6c bf3d eb02 2d3e
000000e0: 7d97 71be cdd2 28be bb96 853e 6c35 62bc
000000f0: 87d5 c43c a6e6 d9be d513 2f39 8d36 d53c

layer2.weight f4 [64, 64]
0.46530518 0.31759328 0.4514355 0.25942892 0.016159432 0.09917526 0.060653724 0.58607763
0.83864146 0.27985263 0.09039287 -0.01285788 0.31988376 -1.308347 -1.3194029 -0.30579153
-0.17525859 0.20609775 0.23219499 0.35131553 0.10546464 0.2926284 -1.2273798 -0.03192132
0.45304933 0.09359932 0.23068863 -1.5870235 0.33462706 0.35915416 0.69132334 -0.3108755
0.08530203 0.15968797 0.27106607 -1.485207 0.2434176 -1.3520684 0.795383 0.09270978
0.48652795 0.04762603 0.052343626 0.41447294 -1.1832992 -0.22099987 0.15594691 0.028455373
-1.0263311 0.19760069 0.22108616 0.28791955 0.14972863 0.47811204 0.32667294 0.11937814
0.3519554 0.30492917 -1.1337786 0.5967186 -0.08457613 -1.7080022 0.16237599 0.13871837
-0.28168905 -0.0228118 -0.37520668 -0.15125798 0.25386056 0.11919845 0.07121791 -0.4313294
-0.40251225 0.26033425 0.07414647 -0.011100827 -0.2812664 0.19734819 0.29727143 -0.30210054
-0.26741847 0.1865972 0.07781696 0.10300345 -0.026174048 -0.24616496 0.09321549 0.05291405
-0.24420635 0.0029795857 0.115227304 0.08789262 0.11850604 -0.2120911 -0.6557283 -0.15884285
-0.060068853 -0.2675631 0.092108026 0.17812541 0.037058387 0.42589605 -0.43497884 0.25569817
-0.577024 0.11773213 0.013384422 -0.1832432 0.16966712 0.14635722 0.09971781 0.12102865
0.186626 -0.07596986 0.29913253 -0.20966974 0.023360485 -0.4141593 -0.029654909 0.15698242
-0.33955193 -0.17010777 0.04086352 -0.024942735 -0.044201266 0.58770615 0.059668753 -0.16476364
0.23807295 0.33481377 0.22403353 0.16832991 0.09977588 0.10220453 -0.0583163 0.26436394
0.45861542 -0.043387037 0.14416549 0.15048936 0.31493753 -0.27233538 -0.21287368 0.1765327
0.25841624 0.019190988 0.06598249 0.23338774 0.12757343 0.34906238 -0.10162666 0.16544305
0.3918777 0.21577288 0.30398223 -0.22042416 0.11191875 0.18509862 0.3564266 0.16468263
0.2303693 0.35731113 0.033705093 -0.062063158 0.14653914 -0.26303056 0.50138825 0.20037635
0.3792378 0.16101615 0.14219935 0.15892248 -0.21700537 0.16677687 0.16049342 0.07043578
-0.27847552 0.25840503 0.07508149 0.12555005 0.07687998 0.33675954 0.15242568 0.060859084
0.3403926 0.27192926 -0.24495779 0.12879118 0.080442645 -0.5327089 0.2853045 0.16753784
-0.049256336 0.00021747458 -0.11962054 -0.102507226 -0.03191717 0.13266912 0.21379448 0.020869594
-0.39027077 0.13838412 -0.082919955 0.07530635 -0.10406603 0.22854972 -0.006135897 -0.48057386
-0.40872583 -0.026417479 0.09611082 0.20323199 -0.08087307 0.038448747 0.14662163 0.08133853
-0.123049274 -0.026289087 0.0088138925 -0.10039139 0.1399006 0.22324577 -0.21691932 -0.4783778
-0.124482036 -0.47611573 0.025815142 0.1540287 0.030592425 0.14626193 -0.18534563 0.009546356
-0.12079423 -0.12545131 0.017319586 0.16450103 0.3342312 -0.07686793 -0.13271917 -0.041629087
0.037851147 -0.13278823 0.13264608 -0.094054304 0.044743907 -0.09453178 -0.001009613 -0.056101307
0.022860968 0.09730431 0.052164745 -0.0114052445 -0.048983257 0.7227504 -0.006842626 -0.11518354
00000000: 7b3c ee3e 969b a23e 8e22 e73e ded3 843e
00000010: c960 843c 661c cb3d 0a70 783d 2f09 163f
00000020: 35b1 563f d848 8f3e e61f b93d dca9 52bc
00000030: cec7 a33e ea77 a7bf 32e2 a8bf b590 9cbe
00000040: fd76 33be 4a0b 533e 86c4 6d3e a1df b33e
00000050: d8fd d73d 64d3 953e c81a 9dbf eebf 02bd
00000060: 15f6 e73e 00b1 bf3d a439 6c3e 9623 cbbf
00000070: 3d54 ab3e 0ee3 b73e 91fa 303f 132b 9fbe
00000080: d5b2 ae3d 3e85 233e 2cc9 8a3e 431b bebf
00000090: 7742 793e 9410 adbf 389e 4b3f a0de bd3d
000000a0: 311a f93e 8313 433d 4566 563d cc35 d43e
000000b0: 5976 97bf ca4d 62be 8cb0 1f3e 3e1b e93c
000000c0: d15e 83bf d657 4a3e 6964 623e 316a 933e
000000d0: 7652 193e 1acb f43e ad41 a73e 877c f43d
000000e0: 8033 b43e ad1f 9c3e a81f 91bf 8dc2 183f
000000f0: 4036 adbd d19f dabf e445 263e 300c 0e3e
00000100: 8c39 90be d0df babc 171b c0be 5fe3 1abe
00000110: 03fa 813e 511e f43d b2da 913d 35d7 dcbe
00000120: 1616 cebe 884a 853e 1bda 973d 3ee0 35bc
00000130: 2602 90be a515 4a3e f633 983e ecac 9abe
00000140: 13eb 88be 5613 3f3e 805e 9f3d 79f3 d23d
00000150: f56a d6bc ab12 7cbe c3e7 be3d 67bc 583d
00000160: 3b11 7abe 2745 433b 4bfc eb3d 0c01 b43d
00000170: 4bb3 f23d 692e 59be cfdd 27bf b3a7 22be
00000180: c20a 76bd 08fe 88be 22a3 bc3d 8266 363e
00000190: 89ca 173d 0c0f da3e 8cb5 debe dfea 823e
000001a0: d8b7 13bf 8b1d f13d 564a 5b3c 1ba4 3bbe
000001b0: 38bd 2d3e abde 153e da38 cc3d dedd f73d
000001c0: e31a 3f3e 1696 9bbd e627 993e aab3 56be
000001d0: 7d5e bf3c b00c d4be daee f2bc 00c0 203e
000001e0: c0d9 adbe bb30 2ebe 8260 273d b554 ccbc
000001f0: 630c 35bd e973 163f 3967 743d cdb7 28be
00000200: 65c9 733e b66c ab3e 0c69 653e ad5e 2c3e
00000210: 4c57 cc3d 9c50 d13d 13dd 6ebd b65a 873e
00000220: a4cf ea3e 9bb6 31bd 1ea0 133e e219 1a3e
00000230: 7e3f a13e 8b6f 8bbe 8ffb 59be fdc4 343e
00000240: 224f 843e 6b36 9d3c d421 873d 32fd 6e3e
00000250: 9ca2 023e 4eb8 b23e a321 d0bd e769 293e
00000260: 32a4 c83e 91f3 5c3e 8fa3 9b3e dfb6 61be
00000270: a835 e53d 7e8a 3d3e 8c7d b63e 90a2 283e
00000280: eee5 6b3e 7cf1 b63e 5a0e 0a3d f035 7ebd
00000290: 5b0e 163e f1ab 86be fb5a 003f 752f 4d3e
000002a0: 752b c23e 6be1 243e b59c 113e 93bc 223e
000002b0: a836 5ebe 8ec7 2a3e 6358 243e a240 903d
000002c0: 5894 8ebe aa4d 843e 53c4 993d 3190 003e
000002d0: 4073 9d3d bf6b ac3e 7a15 1c3e 6047 793d
000002e0: f047 ae3e 503a 8b3e 37d6 7abe d6e1 033e
000002f0: 1dbf a43d 9c5f 08bf 6e13 923e 0a8f 2b3e
00000300: 03c1 49bd e309 6439 9dfb f4bd 4fef d1bd
00000310: 94bb 02bd 6ada 073e f1ec 5a3e b6f6 aa3c
00000320: 92d1 c7be 91b4 0d3e f0d1 a9bd 373a 9a3d
00000330: 9220 d5bd f008 6a3e a20f c9bb c70d f6be
00000340: 8344 d1be 7869 d8bc c0d5 c43d 0c1c 503e
00000350: c8a0 a5bd 6f7c 1d3d fb23 163e d194 a63d
00000360: 4201 fcbd 365c d7bc 2568 103c 009a cdbd
00000370: 1a42 0f3e 8a9a 643e 1920 5ebe efed f4be
00000380: 70f0 febd 71c5 f3be 477a d33c b3b9 1d3e
00000390: f79c fa3c b0c5 153e 3fcb 3dbe 5268 1c3c
000003a0: f762 f7bd 4f76 00be cee1 8d3c f572 283e
000003b0: 5a20 ab3e ef6c 9dbd 89e7 07be 4383 2abd
000003c0: ce09 1b3d a3f9 07be 60d4 073e 8b9f c0bd
000003d0: 6345 373d e199 c1bd fe54 84ba 7cca 65bd
000003e0: ed46 bb3c 7b47 c73d b3aa 553d 10dd 3abc
000003f0: aba2 48bd 2c06 393f 1b38 e0bb 59e5 ebbd

layer2.bias f4 [64]
0.15496878 0.037286185 -0.0023472577 0.013445379 -0.035322297 -0.05005159 -0.07015947 0.11045273
0.027792282 0.1362842 0.18181582 0.11104045 0.028029028 0.053408872 -0.045030154 0.059621893
0.03485303 0.03903289 0.04804525 0.12577128 -0.15783824 -0.016026039 0.10178647 -0.14864604
-0.22640304 0.12976284 0.07304989 0.06954284 0.021218963 -0.0005362144 0.058334313 0.14211142
0.12869143 0.107347876 0.16344635 0.0762492 0.017502172 0.11836112 -0.025657227 -0.09280331
0.022459863 -0.036780514 -0.033752177 -0.046625737 -0.091966264 -0.0048121624 0.10094851 -0.0094895605
0.11232669 0.0354238 0.036422703 0.04442533 0.11577342 0.06841323 -0.04671244 -0.08144637
0.11134807 0.19463009 0.012794432 -0.002054613 0.098547615 0.0150932465 -0.106319375 0.008639886
00000000: 23b0 1e3e 66b9 183d 73d4 19bb 024a 5c3c
00000010: 1dae 10bd e502 4dbd c5af 8fbd 0a35 e23d
00000020: a4ac e33c 168e 0b3e ed2d 3a3e 2d69 e33d
00000030: 229d e53c 43c3 5a3d 8a71 38bd 1636 743d
00000040: 0dc2 0e3d f4e0 1f3d 19cb 443d 30ca 003e
00000050: 59a0 21be 0a49 83bc 6d75 d03d ab36 18be
00000060: 33d6 67be 8de0 043e 2e9b 953d 7a6c 8e3d
00000070: 64d3 ad3c bd90 0cba f6ef 6e3d a885 113e
00000080: b0c7 033e 34d9 db3d 7b5e 273e 8a28 9c3d
00000090: b760 8f3c 5167 f23d 1b2f d2bc a90f bebd
000000a0: bffd b73c 2aa7 16bd b93f 0abd a1fa 3ebd
000000b0: cf58 bcbd 58af 9dbb 18be ce3d 1a7a 1bbc
000000c0: 890b e63d 8c18 113d f92f 153d 56f7 353d
000000d0: 9d1a ed3d 3c1c 8c3d 8b55 3fbd 5bcd a6bd
000000e0: 750a e43d 1c4d 473e bd9f 513c b0a6 06bb
000000f0: 55d3 c93d aa49 773c f9bd d9bd 4f8e 0d3c

layer3.weight f4 [1, 64]
-1.3537374 0.40269795 -0.258568 0.27914056 0.45750076 0.449797 0.7043871 0.23610972
-0.23555225 -0.2411114 -0.28719202 -0.2661232 -1.1651942 0.21317041 -0.6056243 0.24626774
0.3020577 -0.32095644 0.058444187 -0.25222573 -1.3412693 -1.3769232 -1.0210184 0.65686035
0.9023429 -0.30385625 -0.2528094 -0.26255307 -0.73110133 -0.2879808 -0.44469154 -0.31278288
-0.51973194 0.3911866 -0.2102989 0.31122506 -1.4661762 0.48059767 0.04875171 0.31258845
-1.2778913 1.269307 -1.3823309 -1.1449424 0.50475013 -0.22430716 -0.20552944 -1.3095037
-0.24126847 0.03812107 -0.25037384 -0.2201738 -0.31151918 -0.21628205 -0.2393827 -1.2362611
0.38594577 -0.19728333 0.32038715 -0.30227175 0.20578751 -0.25047305 0.3130076 -0.20244502
00000000: 4447 adbf 6d2e ce3e 0663 84be 83eb 8e3e
00000010: 8a3d ea3e cb4b e63e b752 343f bfc6 713e
00000020: 9c34 71be e8e5 76be d50a 93be 4d41 88be
00000030: 1525 95bf 5849 5a3e 320a 1bbf 9c2d 7c3e
00000040: 4fa7 9a3e 6754 a4be 2c63 6f3d bb23 81be
00000050: b6ae abbf 053f b0bf bbb0 82bf 0028 283f
00000060: f2ff 663f 0c93 9bbe 3c70 81be 5b6d 86be
00000070: 7529 3bbf 3872 93be 9cae e3be 1425 a0be
00000080: 270d 05bf 9c49 c83e 9858 57be e458 9f3e
00000090: a9ab bbbf e610 f63e e0af 473d 980b a03e
000000a0: f191 a3bf a778 a23f 38f0 b0bf 798d 92bf
000000b0: 4e37 013f c7b0 65be 4f76 52be d19d a7bf
000000c0: 150f 77be d724 1c3d 0031 80be 3e75 61be
000000d0: 717f 9fbe 0b79 5dbe bd20 75be ce3d 9ebf
000000e0: af9a c53e a404 4abe c909 a43e 5dc3 9abe
000000f0: f6b9 523e 013e 80be 8842 a03e bf4d 4fbe
