BipedalWeights/ppo_actor.pth (torch, 26716 bytes, 6 tensors)

layer1.weight f4 [64, 24]
000000 3a a0 a8 3d b8 a2 91 3c 29 b7 13 3c e9 f6 53 be
       0.08233686 0.017777786 0.009015837 -0.20699657
000010 6c 08 e5 3d 70 50 8b be 0b 57 1a be 2b 3a 67 3e
       0.11183247 -0.27209806 -0.15072267 0.22580783
000020 34 3c 8d 3a 16 13 9c 3c 6e 8d cd bc cf 84 fd 3d
       0.0010775388 0.01905207 -0.025091853 0.12378847
000030 41 14 ef 3d 86 58 18 3d 2f 3a f5 3d 98 bf 0f be
       0.11673785 0.037193798 0.11973988 -0.14037931
000040 d7 c5 17 bd b7 d0 ac bd eb be f4 bd 1b 92 26 3d
       -0.03705391 -0.08438247 -0.11950477 0.04066668
000050 6c f0 ec 3d 6c 65 57 be 37 36 e3 bd 0f 00 1f be
       0.11569294 -0.21034783 -0.11094325 -0.15527366
000060 c7 a4 08 be 12 bc 28 3e be 0f 23 be 01 01 a5 3d
       -0.13344108 0.16477993 -0.15923974 0.08056832
000070 7a 62 c9 3d 10 cc 37 3e b0 49 c0 3d 59 72 bc bd
       0.09833236 0.17948937 0.09389055 -0.092014976
000080 02 53 ff 3d b4 ec 2b 3e 7d 78 61 3e b9 12 1d bd
       0.12467004 0.16789514 0.22018619 -0.038347933
000090 0c 06 0a 3b 74 be 3f 3c aa a4 0c be 12 9e 8a be
       0.0021060733 0.011703122 -0.1373469 -0.27073723
0000a0 06 7a 14 be 4f 0c 0b 3e 68 fd b6 3d 21 a6 85 be
       -0.14499673 0.13578914 0.08935052 -0.2610331
0000b0 ee 66 3c be 16 cb 50 bd 55 de 6d bc 6c 29 e4 3d
       -0.1839864 -0.050974928 -0.01451834 0.11140713
0000c0 c8 17 26 3e 86 a8 4e 3e 66 2a 02 be c6 d8 22 3e
       0.1622001 0.20181474 -0.12711486 0.15903005
0000d0 10 34 bd bd af 02 4c 3e 34 17 27 be ac 3d ab bc
       -0.09238446 0.19922899 -0.16317445 -0.02090343
0000e0 c5 94 3f be 1c 0d 79 bc 71 96 f8 bc bf ec 16 be
       -0.18709095 -0.015200879 -0.030345174 -0.14738749
0000f0 e1 0d 09 be 0f f6 e8 3d 7b 56 84 3d f6 1c 0e 3e
       -0.133842 0.11375057 0.06461807 0.13878235
000100 e1 65 9d 3d 60 cb b6 bd c6 15 51 be 0d 3c f0 bd
       0.076854475 -0.089255095 -0.20418462 -0.11730204
000110 a2 da 11 be 4b 5a 4f be 6e de ec bd bf 74 be 3d
       -0.14243558 -0.20249288 -0.115658626 0.09299611
000120 f4 61 a7 3d e1 fc c1 3d ff 0c 88 3b eb f4 0b bd
       0.0817298 0.09472061 0.00415194 -0.03416912
000130 fa dd 95 3e 26 f3 a0 3e a1 7a 42 3e 1c 6d 16 be
       0.29270917 0.31435508 0.18992092 -0.1469006
000140 66 d4 94 3d 89 24 da 3d 0a 7c 1e 3d 1f fd e0 3d
       0.07267074 0.106515 0.03869251 0.10985779
000150 f0 7f c0 bc 4b f3 3c be ee 29 ab 3d 6b ea ad bd
       -0.023498505 -0.18452184 0.08357607 -0.08491977
000160 01 b0 49 bd 37 25 45 3e 06 18 46 3d 92 a1 2b 3e
       -0.049240116 0.19252478 0.048362754 0.16760853
000170 ad d6 0f be 59 ed 19 be 01 45 f3 bd 3e b5 9f 3d
       -0.14046736 -0.15031947 -0.11878396 0.07798241
000180 c7 fb 1a be 9d 85 ac bd 18 05 ad 3d fc 1c 19 3e
       -0.15135108 -0.08423922 0.08448237 0.14952463
000190 d6 f8 61 3e 85 4c 90 3e d1 90 22 3e ee 61 73 3a
       0.2206758 0.2818338 0.15875556 0.0009284307
0001a0 c5 bb e3 3d 5b bd bb bd d6 54 b4 3d c2 86 54 bd
       0.111197986 -0.09166976 0.08805244 -0.051886328
0001b0 ac 93 03 bd 74 43 fc bc 85 27 83 bd d0 c8 d8 bd
       -0.032123253 -0.030793883 -0.06404022 -0.10585177
0001c0 c0 b1 36 be 78 e3 34 3e fa 7f 58 be e0 c9 21 3d
       -0.17841244 0.17664897 -0.21142569 0.039499164
0001d0 5d 69 39 3e 59 74 5b 3c bf 03 10 3d 46 45 a4 3c
       0.18106599 0.013394439 0.035159823 0.020052563
0001e0 b3 0e f1 3d 35 bf 88 3d e0 f4 97 be b9 fa bb 3d
       0.11770382 0.06677095 -0.29679012 0.09178681
0001f0 cd ef 12 3e 16 c8 62 bc ee 7e b1 bd b9 01 fb bd
       0.14349289 -0.0138416495 -0.08666788 -0.12256188
000200 eb 9a f4 bd 5b 55 17 3d 89 3a ed 3d f3 ae 9b 3d
       -0.11943611 0.036946636 0.1158343 0.07601728
000210 ea 78 3e bd 51 b0 2b 3e f9 18 2c 3d 25 0b 60 3e
       -0.04650203 0.16766478 0.042016003 0.21879251
000220 59 d0 49 3e 49 00 43 3e 3a d7 1d be 2f 62 a2 3b
       0.19708385 0.19043078 -0.15414134 0.004955552
000230 b2 b8 01 3e 9f 04 43 3e 1a da 6c bd 94 df b2 3c
       0.12668112 0.19044732 -0.057825185 0.021835126
000240 b3 38 be bd 2b 76 37 3e 73 cc cf 3d c5 8b 5a 3d
       -0.09288158 0.17916171 0.101464175 0.05335595
000250 c5 44 c2 bd 13 a8 e0 3d cd b3 ab 3d d6 b7 e5 bd
       -0.09485773 0.109695576 0.08383904 -0.112167045
000260 30 4c ba bd a6 82 21 be 12 7e 2d 3e 1c 2b 6e 3d
       -0.09096563 -0.15772495 0.16942623 0.05814658
000270 cc a8 a4 3c e2 e1 88 3d 4c 0c 95 be 0d a8 99 be
       0.02010002 0.06683709 -0.29110944 -0.30011025
000280 85 fe 76 3d 24 d6 9b 3d 65 eb 4d be 48 2f 87 be
       0.060301322 0.076092035 -0.20109327 -0.2640326
000290 97 37 4d 3d 96 29 e8 bc 7a b6 0c be 96 b4 8a be
       0.050101843 -0.028340142 -0.13741484 -0.270909
0002a0 f8 c5 22 3e 1e 6b bb 3d 9c 7f 8b 3e b0 e4 cb bd
       0.15895832 0.0915129 0.27245796 -0.09955728
0002b0 4a 90 85 be bf 1e 7f be 76 36 71 be eb 7a ba 3e
       -0.26086646 -0.24914072 -0.23555931 0.36421904
0002c0 80 ab 7c be d9 aa 15 3e 27 42 82 be 7a 38 d9 bc
       -0.24674797 0.14615954 -0.25441095 -0.026516188
0002d0 f0 f7 07 3e 9a f0 04 bb 9a d6 1c 3e 24 5b 96 3d
       0.13278174 -0.0020285011 0.15316239 0.073416024
0002e0 83 3b 9a 3d e5 4a 28 be 75 55 9e bd d6 ec 43 3e
       0.07530882 -0.1643482 -0.077311434 0.19133314
0002f0 bc 86 69 3d a3 88 e7 bc d6 8e 55 3c 3d cb 14 be
       0.05701326 -0.028263396 0.013034543 -0.14530654
000300 96 f9 12 be ea 66 95 3d 31 17 59 3e be 9d 55 bc
       -0.14353022 0.0729502 0.21200253 -0.013038097
000310 f9 7e 8d bd d0 6a 2d 3e 93 67 ae bd 99 00 75 be
       -0.06908984 0.16935277 -0.08515849 -0.23926009
000320 a4 75 00 be 52 06 24 be 8b b0 4a be 2d d2 ec 3c
       -0.12544876 -0.16018036 -0.19793908 0.028908813
000330 f8 39 10 be e4 45 ce 3d b6 85 68 bb 84 88 5a be
       -0.14084613 0.10071924 -0.0035480089 -0.21341139
000340 85 6a 87 bc 77 d0 43 3d fc 3f 34 3e a9 73 4f be
       -0.016530285 0.04780623 0.17602533 -0.20258965
000350 1d 1a ca bd 5b ad 08 be e6 df 9c bd 0e 20 c3 3d
       -0.09868262 -0.1334738 -0.07659893 0.09527598
000360 32 be 08 be 55 0b 29 3e 8c ae 8e 3d 1b 09 09 be
       -0.13353804 0.16508229 0.06966886 -0.1338238
000370 0b 77 33 3e 89 2e 3e bc dd 6e 28 be 50 75 6f 3d
       0.1752588 -0.0116077745 -0.16448541 0.058461487
000380 6b 84 63 bd e7 38 03 3e 77 79 a3 bd 9c 92 c3 bc
       -0.055546205 0.12814675 -0.07982152 -0.02387362
000390 d0 7f 2b 3e e4 ae ae 3d fa 44 0e bc 81 24 1c be
       0.16747975 0.085294515 -0.0086834375 -0.152483
0003a0 dc 0e b0 bd 0d aa 02 bc e7 b0 b4 3c 5c c5 41 be
       -0.08596584 -0.007975114 0.02205701 -0.18922943
0003b0 7d 54 c7 3d 95 58 63 be f5 ad 2e 3e 91 fa 63 bd
       0.09732912 -0.2220176 0.17058547 -0.05565888
0003c0 f7 32 3b 3d 2d ac aa 3d 24 a9 95 be 80 ea f7 3d
       0.0457029 0.08333621 -0.29230607 0.12105274
0003d0 ff f0 45 3e 00 20 8c 3d 45 16 b0 3d 6f cb 89 be
       0.19330214 0.06842041 0.085979976 -0.2691302
0003e0 69 f6 9b bd 8b 91 81 3e c2 88 99 3e d2 2f 3e be
       -0.076153584 0.25306353 0.2998715 -0.1857293
0003f0 a9 f1 89 be 66 93 93 bb e9 c1 69 bc 05 f0 33 bd
       -0.26942185 -0.0045036552 -0.014267423 -0.043930072

layer1.bias f4 [64]
000000 ca 64 09 3e be d0 83 be 9f 65 d3 3d 23 78 a4 bc
       0.13417354 -0.25745195 0.10322117 -0.020076817
000010 70 61 13 bc 91 c0 e2 3d 6c 5c 25 bd 3b 98 da bb
       -0.008995399 0.110718854 -0.040371343 -0.0066709793
000020 89 24 20 3e c7 33 36 be 75 d7 f3 3d 0d 3a 0a be
       0.15638937 -0.17793189 0.119063295 -0.13498707
000030 28 6a 1a 3d a8 d5 17 be 89 7b d4 3c 8f 85 f8 bc
       0.037698895 -0.14827597 0.025937812 -0.030337123
000040 72 9a a3 bd 50 a2 21 be eb 76 88 be 33 1e ef bc
       -0.079884425 -0.15784574 -0.26653227 -0.029189205
000050 6f 06 cf 3c e4 ae 40 3e 9e 6a 17 3e 61 11 05 3e
       0.025271622 0.18816715 0.14786765 0.12994911
000060 ac 3f 97 3d c0 26 2a 3e 34 27 45 3d 33 2f b1 bd
       0.07385191 0.16616344 0.04813309 -0.08651581
000070 e0 42 fb bc 47 1a 0a bb 3a fb ed 3d 48 cd 56 bd
       -0.030671537 -0.0021072791 0.11620183 -0.052441865
000080 ea cc 4d be d5 c3 1e 3e 93 ae 34 be 91 b5 2e 3e
       -0.200977 0.15504391 -0.1764472 0.1706145
000090 0d 16 f5 3d 1c 66 5c bd cd 76 70 3d f2 df d1 3d
       0.119670965 -0.053808317 0.058707047 0.10247792
0000a0 28 65 ae bd d9 45 35 bd b5 41 9a 39 c8 08 0c be
       -0.08515388 -0.044256065 0.00029422124 -0.13675225
0000b0 3c b3 16 3e cb 5a be bd 4c f9 0b 39 78 40 16 3d
       0.1471681 -0.09294661 0.00013348943 0.036682576
0000c0 f5 7e 7b 3e c4 67 33 be 77 46 ff 3d 53 74 ea bd
       0.24560149 -0.17520052 0.12464612 -0.11447968
0000d0 19 28 3f 3e 1a b5 a9 bd 3e c8 2f 3e 9f 1a 03 3c
       0.1866764 -0.082864955 0.1716623 0.008001952
0000e0 1f a3 53 3d 8d 24 dd bd 86 54 67 be a5 83 8c bd
       0.051669236 -0.10797987 -0.22590837 -0.06861047
0000f0 55 18 15 3e 27 74 1c be f4 ba 12 be 2b 7a fa 3d
       0.14560063 -0.15278684 -0.1432913 0.12230333

layer2.weight f4 [64, 64]
000000 8c 09 63 3d 57 08 05 bc 89 46 b7 3d 18 5a 1f be
       0.055429026 -0.008119664 0.089490004 -0.15561712
000010 3a 50 40 be 31 01 e7 bc eb e8 e5 bd c8 6c c0 3c
       -0.18780604 -0.02819881 -0.11226066 0.023489371
000020 3c c6 bd bc b7 a3 e5 bc 6a f9 bd bd 57 3b 1d 3d
       -0.023165815 -0.028032167 -0.092760876 0.03838667
000030 f7 83 dd 3d 78 f1 74 bc ad b3 26 3e 16 1b 20 3c
       0.10816186 -0.014950149 0.16279478 0.009772083
000040 55 17 6f bd b1 ff d9 3d bf 1d 24 be 43 d4 a6 bd
       -0.05837186 0.106444724 -0.16026972 -0.081459545
000050 17 1b 32 3c d2 75 02 3e 53 6d e4 bd da be 9f 3d
       0.010870717 0.12740257 -0.111536644 0.07800074
000060 1e 85 bc 3d fe ec f5 bd 2e fa 68 bd bd 33 ef 3d
       0.092050776 -0.12008093 -0.056879215 0.1167979
000070 0b 3a ee bd 54 72 bc 3d 56 84 91 bd 48 11 69 bd
       -0.116321646 0.09201494 -0.07105319 -0.056901246
000080 f9 89 18 bd 07 4f 8c 3d f1 34 f8 3c fc cf e5 3d
       -0.037240956 0.06851011 0.030298682 0.112213105
000090 1f bc 51 3d 88 bb 68 3d 28 d6 8f bd c1 2f 0f 3d
       0.051204797 0.05681947 -0.07023269 0.03495765
0000a0 f2 9d 34 3d 5b 48 77 3d b2 15 55 bd e3 06 75 3d
       0.04409594 0.060371738 -0.052022643 0.05982102
0000b0 35 a3 ac bd 98 64 ca bd 30 d9 5a bd 15 e9 f1 bd
       -0.08429567 -0.09882468 -0.053429782 -0.11812035
0000c0 cb 53 9a 3d 1c 73 d2 3c 95 90 ff 3d 65 1c 5d 3d
       0.075355135 0.025689654 0.12478749 0.053982157
0000d0 a4 17 a5 bd 85 cc f0 3c 83 b4 3b 3d 73 2c 9e 3d
       -0.0806115 0.029394398 0.045826446 0.07723322
0000e0 1a 97 24 3d b9 29 dd 3d 8f 7b 42 bc 00 bf 32 bd
       0.040183164 0.107989736 -0.011870279 -0.043639183
0000f0 10 e7 41 be 58 b5 37 3d 74 d3 80 bd 68 3e aa bd
       -0.189358 0.044850677 -0.062903315 -0.08312684
000100 c0 e2 f6 bd 71 5e 95 bd 3e 60 65 3d 69 c1 a1 bd
       -0.12054968 -0.07293404 0.055999987 -0.07898218
000110 c6 ba 00 bd e1 0e 58 3d 63 05 b9 bd 01 2c da 3c
       -0.03142812 0.052748565 -0.090342306 0.02663231
000120 55 52 1e 3b ea dc 08 be 75 9d 9f bc 84 f4 94 bd
       0.002415796 -0.13365522 -0.019484261 -0.072732
000130 d9 e7 54 bd d7 d6 76 bd a8 83 cc bd 50 76 e9 bd
       -0.05197892 -0.06026348 -0.09986049 -0.113995194
000140 03 b1 8c 3c 83 8a e3 bd a6 6d ca 3d 56 6f 4f 3d
       0.01717425 -0.111104034 0.09884195 0.050643288
000150 78 68 6d bd bd f6 06 be 2c 39 8d 3d 96 d9 04 3c
       -0.057960957 -0.1318006 0.0689567 0.008108517
000160 e1 30 56 3d f5 2f 92 3d ae d0 15 bd 3d 4b 2a 3d
       0.05229271 0.07138053 -0.036575966 0.04157566
000170 3b e4 9a bd 89 2b a5 3d a1 44 1b bd b4 1e 27 bd
       -0.07563063 0.08064944 -0.037907247 -0.040800765
000180 95 07 c8 bd 91 92 41 bb 10 f0 8d 3b 66 2b e8 bc
       -0.09767071 -0.0029536823 0.004331596 -0.028341006
000190 90 45 41 3d 3e 80 2f bd e2 50 9c bd 09 62 fe bc
       0.04718548 -0.04284691 -0.07632615 -0.031052606
0001a0 05 46 0a 3e de f3 c0 bd 71 a0 9a bd b8 15 87 bd
       0.13503273 -0.09421514 -0.07550133 -0.065959394
0001b0 2c e0 3a 3c 02 7a 00 bd d7 5d 34 be 60 d8 8b bd
       0.011405986 -0.031366356 -0.17613922 -0.0682838
0001c0 ee ec 3a 3c ce 53 4a bd e8 89 7e 3d 0a 56 33 3d
       0.0114090275 -0.04939633 0.062143236 0.043783225
0001d0 e5 b0 c4 bd 21 ac 42 3c 88 e0 0f 3d 60 17 04 be
       -0.096040525 0.011881859 0.03512624 -0.12899542
0001e0 c5 da 02 3d 35 0e 09 be b0 de 10 3e 98 9e 72 3c
       0.031946916 -0.13384326 0.14147449 0.0148083195
0001f0 f8 45 81 bc aa 73 76 bc 58 9c 11 be dd 3c 8a 3d
       -0.015780434 -0.015042225 -0.14219797 0.0674989
000200 e3 62 b5 bc 41 25 54 3d 68 8c 8a bd d4 be 29 3c
       -0.02214188 0.05179334 -0.067650616 0.010360438
000210 17 6b 14 bd 2e 1a d8 bd cc 0c a0 3c 83 ec 10 3e
       -0.03623494 -0.105518684 0.019537352 0.14152722
000220 a6 47 eb bd 26 a2 f9 3d 32 dc 26 be 7a 8e 5b 3d
       -0.11488275 0.121891305 -0.16294935 0.053602673
000230 79 d0 ff 3c 96 f7 53 be 1a 92 23 3e ab 98 f2 3d
       0.031227337 -0.20699915 0.15973702 0.11845525
000240 4d 7e a1 bd 94 7f 0a 3e a0 15 ef 3d 98 d1 c4 bd
       -0.07885418 0.1352523 0.116740465 -0.09610289
000250 ca 4d ca bc 94 f0 1e 3e de 88 db bd 17 a4 72 3d
       -0.024695296 0.15521461 -0.10719465 0.05923852
000260 aa ac 92 3d 42 9f f0 bc 9f 6c 0e be 39 3a 8b 3c
       0.07161839 -0.029372815 -0.13908623 0.016995536
000270 b5 88 35 be 52 af 0a 3e 74 26 b7 3c df e2 f1 bd
       -0.17727931 0.13543442 0.022357203 -0.1181085
000280 ae 60 f8 3d 64 44 f6 bd 62 91 c1 3c ec d7 ab bd
       0.12127815 -0.12024763 0.023628894 -0.08390793
000290 24 b9 a7 bc d1 b1 95 bd 46 5d 8d 3d a1 36 0d 3c
       -0.020474024 -0.073093064 0.06902556 0.008618982
0002a0 97 49 21 be f7 0a 43 bb cd d4 90 3b b6 55 0e 3e
       -0.15750729 -0.0029761174 0.004419899 0.13899884
0002b0 03 4c c4 3d fb 92 53 bd 0c 3e 99 bb 12 6e 55 bd
       0.095848106 -0.051653843 -0.004676586 -0.052106924
0002c0 30 85 75 3d b9 c3 80 bd 73 f2 a4 bd 7d c4 2f bd
       0.05994147 -0.06287331 -0.08054056 -0.042911995
0002d0 01 fc 05 be fc ab ed 3c 79 0c ab 3d 00 7a 03 bd
       -0.13084413 0.029012673 0.08351988 -0.03209877
0002e0 d2 3b c0 3d eb 7a 24 3e 9e 64 29 be f3 a8 eb bd
       0.0938641 0.16062514 -0.16542289 -0.11506834
0002f0 4f 2e 17 be 56 15 c5 bc 8a 06 3d bd fe 6f 7b 3c
       -0.14763759 -0.024058025 -0.046148814 0.015346525
000300 b0 0b 04 3e d3 40 cd bd 55 7a a8 3d fe 9e 64 3c
       0.12895083 -0.1002213 0.08226458 0.013953922
000310 ee 6d 15 3e c9 5f cb bd d1 60 88 3b 03 9d ba bd
       0.14592716 -0.09930379 0.004161932 -0.09111979
000320 88 de ba 3d 1f 15 8d bd 04 9e bc 3a 64 03 9e bc
       0.09124476 -0.06888794 0.0014390354 -0.019288726
000330 fe 6b 98 bd d2 1d c7 3d 00 20 30 be b3 a9 ff bd
       -0.07442473 0.09722485 -0.17199707 -0.124835394
000340 2c 55 34 3d b7 e5 08 3d 6c 82 9b 3d 91 ff a0 3d
       0.04402654 0.0334222 0.075932354 0.078612454
000350 0d bf bb 3d 0b 44 5a bd e5 91 eb 3d 82 dd c0 bc
       0.091672994 -0.053287547 0.115024365 -0.023543123
000360 7c 6a ad 3d bc 67 a8 3d 37 96 3f bd 7f 06 db bb
       0.08467576 0.08222911 -0.046774115 -0.006684124
000370 48 86 c1 3c cf 9c 72 3d 4d 71 69 bd b8 24 8f 3d
       0.0236236 0.059231576 -0.056992818 0.069894254
000380 e2 32 47 3d e9 0a a4 3d dd cf a3 bd 2f c0 8b bd
       0.04863251 0.080098934 -0.07998631 -0.068237655
000390 fb 94 3a 3d 54 55 75 3c 3a d5 1c 3d 93 d1 24 3e
       0.045552235 0.014973957 0.038289286 0.16095571
0003a0 f6 20 79 bd 50 27 7c 3d ad 90 c0 3d 4f 72 d1 3d
       -0.06082245 0.06156093 0.09402595 0.10226881
0003b0 2b e0 48 3e 65 e1 6f 3d 3e 20 af bd 0b 13 89 3d
       0.19616763 0.058564562 -0.085510716 0.06693085
0003c0 33 ec 78 be a5 15 b3 3d 3a 9e 11 be 86 98 23 be
       -0.24308853 0.08744363 -0.14220515 -0.15976152
0003d0 5a ca 9c 3d e0 1c a3 3d 6a 91 80 bd 96 1e 5c 3c
       0.07655783 0.07964492 -0.062777355 0.013435027
0003e0 42 93 10 3e ad 71 f3 bd 86 05 be bd be 05 40 bd
       0.14118674 -0.11886916 -0.09278397 -0.046880476
0003f0 68 50 e3 3d 39 d0 90 3d ac d0 ff bc 90 f3 47 bc
       0.11099321 0.07070965 -0.031227432 -0.012204066

layer2.bias f4 [64]
000000 c1 c2 a0 3d 90 1c d6 bc f7 92 4c bd 8b 61 e9 3d
       0.07849646 -0.026136667 -0.049944844 0.11395558
000010 a8 16 0f bc dd 12 86 3d f1 f3 1c be 5c 92 3b 3d
       -0.008733429 0.06546567 -0.15327431 0.045793876
000020 76 5b 24 3c da 4c e1 3d 40 19 55 bb 29 aa 22 bd
       0.010031572 0.110009864 -0.003251627 -0.03971306
000030 4c f1 05 3d 7d c1 b4 bd c4 c4 b3 bd fa ed b2 3d
       0.03270082 -0.088259675 -0.087777644 0.08736797
000040 89 bf 2f 3e 02 09 be 3d 71 f7 2b 3d 72 20 93 3d
       0.17162909 0.09279062 0.041984025 0.07183923
000050 94 4d 04 bd a0 82 9d bd fb a8 55 3c f7 86 5a 3d
       -0.032300547 -0.0769093 0.013040776 0.05335137
000060 62 3f 33 3c 0a d3 d2 3d 2b 5b 0b be 1e ef 3f 3d
       0.010940405 0.10294159 -0.13608997 0.0468589
000070 4c 7b 2b bc 71 7f 5f 3d a4 32 b6 3d 66 e0 56 3d
       -0.010466408 0.054564897 0.08896378 0.052460097
000080 c6 84 c5 3d bb e7 69 3d 3f 99 1b bd 52 95 12 3d
       0.09644465 0.05710576 -0.037987944 0.035786934
000090 ee 2d 91 3d 78 21 96 3b 1c 71 98 bc d9 8f 07 3c
       0.070888385 0.0045816265 -0.018608622 0.008274042
0000a0 c3 15 1e 3b e9 92 cb 3d 74 1c 99 3d 9f 1b 46 bd
       0.0024121858 0.0994013 0.0747613 -0.048366185
0000b0 81 51 e8 ba 35 21 67 bc b0 35 4f 3d 1a 96 90 bd
       -0.0017724485 -0.014107038 0.05058831 -0.070598796
0000c0 e7 19 a2 3d e1 cd 42 3d 93 40 a0 bd a8 f4 4e bd
       0.07915097 0.047559623 -0.078248166 -0.05052629
0000d0 44 0d 35 bd 83 f2 07 bd 4c 34 87 bc 3e 09 57 3d
       -0.044202104 -0.03319026 -0.01650443 0.05249905
0000e0 d5 15 0b bd ad bf b9 bd 49 bd 1d 3e 76 14 05 be
       -0.033956368 -0.090697624 0.15404238 -0.12996086
0000f0 6f 24 73 3c 28 eb 47 3d 74 05 a4 3d da 31 b1 bd
       0.014840229 0.048808247 0.080088526 -0.086520866

layer3.weight f4 [4, 64]
000000 a2 a6 3c 3d da 8c 9e bc 31 e8 8e bd 65 1d 42 be
       0.04605735 -0.019354273 -0.06977881 -0.18956526
000010 84 16 52 bd b2 f0 b6 bc 09 a6 b7 3c 3f 1b 03 be
       -0.051291004 -0.02233157 0.022418039 -0.12803362
000020 fa f2 99 3d 3c c0 2f bc 2d eb a9 3d aa 31 3d be
       0.07517047 -0.010726985 0.08296809 -0.18475977
000030 c1 44 68 bc dd b8 be bc 0d 76 f2 3c a1 b7 fe bc
       -0.014176548 -0.023281509 0.029597307 -0.03109342
000040 79 fc c1 bd fa 8e 16 3d f7 c5 11 3e 3f 50 a4 3d
       -0.094719835 0.036757447 0.14235674 0.08023118
000050 77 eb c7 bd 19 f8 a1 ba e7 da ff 3d 56 df 47 be
       -0.09761708 -0.0012357264 0.12492924 -0.1951879
000060 b3 e9 70 3b b6 95 5b 3d 75 34 83 bd 6c 88 b2 3d
       0.003676039 0.053609572 -0.0640649 0.08717427
000070 f6 f3 a2 bd 1e 04 e8 3c 71 2d b9 3c 19 53 0c 3d
       -0.07956688 0.028322276 0.022604676 0.034258936
000080 8c 25 4f bd 56 f1 04 bd ab e5 81 bd 18 c3 26 be
       -0.050572917 -0.03245672 -0.06342634 -0.1628536
000090 6a 21 01 3b a2 cb ba 3c 1f d1 06 be b8 fc c7 3d
       0.0019703754 0.022802178 -0.13165711 0.09764999
0000a0 f4 ea 7c bd 14 e5 b0 3d 4a c2 b0 bd a7 e4 5c 3d
       -0.061747506 0.08637443 -0.08630808 0.053928997
0000b0 5c 71 61 be 62 24 c0 3d bd 78 95 bd 68 55 05 3e
       -0.220159 0.093819395 -0.072984196 0.13020861
0000c0 7e 21 e1 3b b0 8a bc 3d cf 2e a8 bd df 5c 38 be
       0.0068704477 0.0920614 -0.08212053 -0.18004178
0000d0 d7 dd fd bd e8 41 ae 3c e1 42 59 3d 40 b4 7e bd
       -0.12395828 0.02127166 0.053042296 -0.06218362
0000e0 21 84 0a 3e 4a 71 b8 bd 12 60 a6 bc 14 20 e7 3d
       0.13526966 -0.09005983 -0.020309482 0.11285415
0000f0 7d 4e d0 bc b0 a6 58 3e 96 5f c0 bd 0c f3 1e 3d
       -0.025428051 0.21157336 -0.093932316 0.038806006
000100 e2 7e e8 bd 4c 44 d4 bd 36 8b fa bd 6c 0e cc bc
       -0.11352326 -0.10364589 -0.12233584 -0.02490922
000110 f7 6a f5 bc ce 0e 61 3d d9 98 14 be 31 e2 83 3d
       -0.029958231 0.05494576 -0.14511432 0.06439627
000120 4a 55 b8 3d 29 f5 2d 3d 6c 46 7e be 9c ef c1 bc
       0.090006426 0.04247013 -0.24831551 -0.023673825
000130 58 ff ac bd c7 b3 9f 3b 15 16 20 bd 84 2b 9e bd
       -0.084471405 0.004873726 -0.03908356 -0.07723144
000140 37 c4 99 bd b5 6e d9 bc 28 35 8b bd 87 8b 95 bd
       -0.07508128 -0.026542047 -0.06797248 -0.07302003
000150 6a 73 d4 bd 2d d6 a4 bd 5c e4 de bd 7c 09 10 bd
       -0.10373576 -0.08048663 -0.108834 -0.035165295
000160 26 a3 89 bd 18 8c 8f 3c f3 e8 00 3e 63 e1 83 3d
       -0.06720571 0.017522857 0.12588863 0.064394735
000170 9d 65 a3 3d fd c6 4c be 59 e2 01 3d 57 ff 50 3c
       0.079783656 -0.19997783 0.031710003 0.01275619
000180 dd 26 11 3e b2 67 f2 ba ae c6 7b 3c da 8d 6e 3e
       0.14174981 -0.0018494038 0.015367193 0.232963
000190 4b 58 17 be 59 4c 80 3d 9f 7f 4c bc 06 d9 d3 bd
       -0.14779775 0.06264562 -0.012481599 -0.10344128
0001a0 8e fa 48 3b 7b 8e 08 3c f1 79 0c be d2 99 f9 3d
       0.003066692 0.008334751 -0.13718392 0.12187542
0001b0 80 b5 ab 3b eb e3 09 bc 57 f5 af bc 4a 36 c1 3d
       0.0052401423 -0.008416156 -0.021479292 0.09434183
0001c0 bc 86 99 bd b4 e5 0f 3d fd 48 b4 bd e5 b8 5e be
       -0.07496402 0.03513117 -0.08802984 -0.21750219
0001d0 6d 75 75 3c d2 13 7d bd 30 27 a4 bd c9 42 05 3e
       0.01498161 -0.06178648 -0.08015287 0.13013758
0001e0 56 32 86 3d e6 1e 8d bd 1c d9 74 3c b2 00 09 be
       0.065525696 -0.06890659 0.014944341 -0.13379171
0001f0 c9 3d bb 3d 08 e0 8a 3d ad 55 b7 3d 05 d9 64 bd
       0.09142644 0.06781012 0.08951888 -0.05587103
000200 94 19 aa 3d 9d 21 bd bd 49 40 59 bc 05 d5 38 bd
       0.0830566 -0.09234927 -0.013259956 -0.045125026
000210 e2 b4 a5 3d 50 4a c9 bd 0f 3b bb bd 60 3a da 3d
       0.08091141 -0.09828627 -0.09142124 0.106556654
000220 cb 9e 12 bc e3 29 b6 3d 8a 99 87 3d 7b b3 24 be
       -0.008948992 0.08894708 0.06621082 -0.16084091
000230 5e c8 bb 3d 28 e9 80 bb 8a 08 5a bd 04 3d 14 3d
       0.091690764 -0.0039340444 -0.0532308 0.036191
000240 a4 f5 61 bc eb fc 0e 3d 9a c8 7d 3d e1 b7 00 be
       -0.013791475 0.03490917 0.061958887 -0.12570144
000250 2b 55 ca 3b af b3 16 3e 8d 19 a7 3d 2c 80 26 be
       0.0061747036 0.14716981 0.0815917 -0.16259831
000260 41 26 82 3d 06 2a a1 bd 09 fc ac 3c 0f 70 ad bd
       0.063549526 -0.078693435 0.021116273 -0.08468639
000270 c3 0a 78 3d 04 e4 c1 3d 4d 86 2c be cc 1f f7 3c
       0.06055714 0.09467319 -0.16848107 0.03016653
000280 be 14 a7 3d 60 c1 16 3e 34 e8 0f bc 65 a2 67 be
       0.08158253 0.14722204 -0.008783389 -0.22620542
000290 41 1d 3b 3d 42 51 1b 3c 75 88 db 3d 05 b6 ff 3d
       0.045682196 0.009479823 0.107193865 0.12485889
0002a0 fd ea 69 bd ae de 6d bd f2 21 14 3d 80 56 4e 3c
       -0.057108868 -0.058073692 0.036165185 0.012593865
0002b0 35 eb 9e bc 92 b5 98 bc 3e 81 46 3d 65 20 03 3e
       -0.019399265 -0.018641267 0.0484631 0.12805326
0002c0 d9 1e f3 3d e2 61 90 3d 22 07 9e bd 62 bd c6 bc
       0.11871118 0.0704992 -0.07716204 -0.024260227
0002d0 23 1e 4a be 7d a9 0a be 7b d4 b4 3d af 04 94 bd
       -0.19738059 -0.13541217 0.0882959 -0.07227456
0002e0 ca 70 2f 3d 8d 16 87 bd e4 15 ca bd af c7 30 be
       0.042832173 -0.06596098 -0.098674566 -0.17263673
0002f0 ae 94 33 be 5f 54 2f 3e 4e b3 75 b9 74 87 d1 3d
       -0.17537186 0.17122029 -0.00023431817 0.10230914
000300 ed 40 e2 3d ca cc 24 bd 6f fb 15 3e 10 81 06 bd
       0.1104754 -0.040234365 0.14646696 -0.032837927
000310 ca 2f c0 bd 99 45 9e 3a 28 64 83 3d d2 48 14 3d
       -0.09384115 0.0012075185 0.06415588 0.03620226
000320 97 50 63 bd a9 2e 2a 3d ca 94 35 3e f8 20 63 3a
       -0.05549678 0.041548405 0.1773254 0.00086642755
000330 22 68 1e 3e ba 64 cc 3d 6b 87 ce bd e7 d8 9e bb
       0.15469411 0.099801496 -0.10084423 -0.004847634
000340 ec 92 1b 3e fc 19 c3 3d 23 b8 ed 3c 13 6e aa bd
       0.15192765 0.095264405 0.029018467 -0.08321776
000350 ed 4b a6 bd b3 2d 88 bd 21 9a cf 3d 5b b7 1c bd
       -0.081199504 -0.066493414 0.1013682 -0.0382608
000360 0e 62 ca 3d ae e8 c6 3d 8a d5 28 3d 48 27 d7 3d
       0.09881984 0.09712349 0.04121927 0.10505539
000370 c0 86 95 bc a7 17 98 3d 3c 65 a9 3d 55 a9 bd 3d
       -0.01825273 0.07426386 0.08271262 0.09260813
000380 07 30 00 3d e8 c3 20 3d b0 a6 71 3e 19 7c 5f 3d
       0.031295802 0.03924933 0.23598742 0.054561708
000390 98 f7 05 be df f0 d2 3d a7 07 2f 3e 75 75 4a bc
       -0.13082731 0.10299849 0.17092763 -0.0123571055
0003a0 ba 7e 95 3c b5 26 59 3d 84 f4 7b 3e ea 67 05 3e
       0.018248904 0.05301543 0.24604994 0.13027921
0003b0 82 f5 11 bc 6e 67 d4 3b 2d e8 49 3e d2 88 82 3d
       -0.008908631 0.0064820563 0.19717474 0.06373753
0003c0 98 f4 e9 3d e8 d6 08 bd 07 36 04 3d 1d a7 9a bd
       0.11423606 -0.033408076 0.032278087 -0.075514056
0003d0 98 cf 37 bb 40 3c d2 3d ff 93 5e 3e 42 6e 93 3e
       -0.002804732 0.10265398 0.21736144 0.28795058
0003e0 04 d9 a7 bd b8 cf 2c bd df 76 39 3e 9b 7a 78 3c
       -0.08195689 -0.042190284 0.18111752 0.01516595
0003f0 2b cd 31 3d 56 37 ad bd 72 bf f8 3d a6 fe 36 be
       0.043408554 -0.0845782 0.1214589 -0.17870578

layer3.bias f4 [4]
000000 ab 9a 3c 3d ee 54 ba 3d c4 5a 30 3d 72 68 34 3e
       0.04604594 0.0909823 0.04305531 0.17617968
