CartPoleWeights/ppo_critic.pth (torch, 20838 bytes, 5 tensors)

layer1.weight f4 [64, 4]
-0.1641599 -0.2611182 -0.05751306 -0.015168899 -0.13993764 -0.073565625 0.68850327 0.10026287
-0.1503543 -0.11115794 -0.1060021 -0.4795212 -0.18863618 0.02015991 0.09387072 0.019129625
-0.02163648 0.021099316 0.27019876 -0.24334025 -0.37870538 -0.65362495 -0.5161209 -0.41156065
0.16541155 -0.50403035 0.34615487 -0.5911028 -0.10325185 -0.4240341 -0.43394977 0.36123502
-0.8510221 0.3509893 0.06636934 0.20113559 0.27986345 0.09709414 -0.14151156 0.25111276
0.45872262 -0.20668237 -0.30232355 -0.12948589 0.8264792 0.5442398 -0.09279859 0.4257192
-0.046547815 0.41535673 0.62762576 -0.17902055 0.28802812 0.14676094 -0.08799762 -0.49902037
0.5168933 -0.32326323 0.6599271 -0.15763701 0.3237088 0.093023345 0.24539277 0.4062104
-0.054864444 0.27969223 0.51408297 0.5231214 0.253707 -0.12227826 -0.17929135 -0.12269165
-0.013268321 0.31552544 0.48711434 -0.26087788 0.9860587 0.08523482 0.55679125 -0.024362523
0.009414251 0.032069933 -0.20508432 -0.22067659 0.38222888 -0.45009845 0.4093606 0.09535439
0.07167408 -0.18230312 0.18894821 0.3121516 -0.039822783 0.3762918 0.41321605 -0.37387213
-0.12602724 -0.06814735 0.023658901 -0.21827255 0.055165194 -0.41979927 0.2625275 -0.034020767
0.81355166 0.6161178 0.022618568 0.16381796 -0.1908373 0.10009706 0.6846319 0.6533642
0.45263433 0.5582251 -0.24457338 0.06986603 -0.80448395 0.56574255 -0.41354746 0.30999961
-0.14190076 -0.3704644 0.38305178 -0.12148998 -0.606056 -0.66332394 -0.64625627 0.5498288
0.1875125 0.17643683 0.29047975 0.29994828 0.40315768 -0.13208759 0.3762492 0.32196194
0.30240604 0.31325758 -0.3421597 -0.1871932 -0.27450895 0.05506843 0.4620655 0.031576116
-0.33654904 0.43687552 0.25896204 0.20221987 0.23548861 0.2870609 -0.2547098 0.05314763
-0.011533689 0.010134734 0.50129414 -0.4049272 -0.26961577 0.3744037 0.16989113 0.25401318
0.32611373 -0.47299007 0.17589657 0.1373096 0.40264937 0.087751284 0.3592494 0.05197922
-0.16263708 0.53575265 -0.30676985 -0.61040294 -0.09525528 0.07562382 0.35901704 -0.401516
-0.08263412 -0.0164613 0.46100745 -0.077866785 -0.15441862 0.26096213 -0.08880063 -0.21293072
0.42295063 0.7122491 -0.4945014 -0.51357496 0.12751587 -0.1432022 0.64604115 0.25291157
0.09769238 -0.07683207 0.037588798 0.22445644 -0.7039869 -0.33613616 -0.10663804 -0.43715015
-0.3093918 0.04050266 0.07938271 -0.28002635 0.10240838 0.52045715 0.39201054 -0.3635119
-0.67013294 0.3239832 -0.790502 0.1987733 -0.893459 0.2648555 0.09528576 0.3571012
0.087997876 -0.4461305 0.4620151 0.31004173 0.036029685 -0.34106892 0.095775396 -0.22612827
-0.35674763 0.5951041 0.64298093 -0.50002944 -0.11967868 0.41054586 0.65755713 0.07163872
0.09920048 0.38410604 0.22516392 0.11802511 0.4349581 -0.07170842 -0.21450305 -0.37768775
0.02567697 -0.41646233 0.28537008 0.0787476 -0.088396214 -0.43035224 -0.006536529 0.6522379
0.020995637 -0.37410158 0.09057866 0.3678387 -0.040617373 -0.18741901 0.38282323 -0.23398161
00000000: 8819 28be 49b1 85be d092 6bbd f986 78bc
00000010: d04b 0fbe 93a9 96bd c041 303f 9f56 cd3d
00000020: 7af6 19be c6a6 e3bd a117 d9bd cd83 f5be
00000030: d829 41be 6526 a53c 4b3f c03d bbb5 9c3c
00000040: fd3e b1bc 79d8 ac3c 7e57 8a3e 302e 79be
00000050: ace5 c1be f753 27bf 8020 04bf 14b8 d2be
00000060: a561 293e 2208 01bf 363b b13e 8352 17bf
00000070: b575 d3bd ff1a d9be aa2e debe ccf3 b83e
00000080: 96dc 59bf dfb4 b33e a6ec 873d 7df6 4d3e
00000090: 434a 8f3e 4bd9 c63d 68e8 10be da91 803e
000000a0: b1dd ea3e 8ba4 53be 27ca 9abe f397 04be
000000b0: 2494 533f 4d53 0b3f 300d bebd def7 d93e
000000c0: eca8 3ebd a3a9 d43e 15ac 203f 2a51 37be
000000d0: 6c78 933e 8048 163e 1938 b4bd 997f ffbe
000000e0: 1f53 043f c282 a5be fcf0 283f 996b 21be
000000f0: 29bd a53e 0683 be3d 3e48 7b3e cffa cf3e
00000100: 8ab9 60bd d233 8f3e f19a 033f 49eb 053f
00000110: e2e5 813e 066d fabd 2798 37be c345 fbbd
00000120: 5f63 59bc 8d8c a13e 0d67 f93e c991 85be
00000130: 586e 7c3f 988f ae3d df89 0e3f ea93 c7bc
00000140: 3b3e 1a3c c35b 033d a001 52be 0bf9 61be
00000150: 81b3 c33e 4e73 e6be b697 d13e 2a49 c33d
00000160: dcc9 923d abad 3abe a47b 413e 56d2 9f3e
00000170: 371d 23bd 52a9 c03e 0e91 d33e 2b6c bfbe
00000180: 490d 01be d690 8bbd 50d0 c13c d782 5fbe
00000190: e6f4 613d eeef d6be 016a 863e 5c59 0bbd
000001a0: ec44 503f e5b9 1d3f 934a b93c e5bf 273e
000001b0: da6a 43be b0ff cc3d 0944 2f3f e042 273f
000001c0: b0bf e73e d7e7 0e3f 7271 7abe ec15 8f3d
000001d0: a9f2 4dbf 81d4 103f 7ebc d3be 45b8 9e3e
000001e0: 6f4e 11be 83ad bdbe 5d1f c43e bdcf f8bd
000001f0: 7c26 1bbf 99cf 29bf 0d71 25bf 95c1 0c3f
00000200: 4703 403e dbab 343e c3b9 943e d292 993e
00000210: af6a ce3e f841 07be bca3 c03e 32d8 a43e
00000220: f7d4 9a3e 4c63 a03e 8e2f afbe 93af 3fbe
00000230: 708c 8cbe 6f8f 613d d993 ec3e f555 013d
00000240: 2850 acbe 26ae df3e ac96 843e ba12 4f3e
00000250: ed23 713e a5f9 923e 5369 82be 54b1 593d
00000260: ccf7 3cbc 280c 263c d054 003f 9e52 cfbe
00000270: 140b 8abe d7b1 bf3e f1f7 2d3e 040e 823e
00000280: 61f8 a63e c12b f2be 3b1e 343e e39a 0c3e
00000290: 0f28 ce3e f2b6 b33d 8aef b73e 2ae8 543d
000002a0: 568a 26be 1627 093f f010 9dbe 5e43 1cbf
000002b0: 3315 c3bd a9e0 9a3d 15d1 b73e 8193 cdbe
000002c0: 143c a9bd d9d9 86bc 2b09 ec3e 9f78 9fbd
000002d0: ea1f 1ebe d49c 853e 1bdd b5bd 830a 5abe
000002e0: fc8c d83e f555 363f 4a2f fdbe a679 03bf
000002f0: 8593 023e 99a3 12be f462 253f a07d 813e
00000300: f112 c83d 225a 9dbd b6f6 193d e9d7 653e
00000310: 7c38 34bf 0a1a acbe 0b65 dabd 25d2 dfbe
00000320: 9a68 9ebe 1ee6 253d 6793 a23d 9d5f 8fbe
00000330: 7cbb d13d ae3c 053f 9bb5 c83e 3b1e babe
00000340: d58d 2bbf 20e1 a53e 575e 4abf 3a8b 4b3e
00000350: bbb9 64bf 249b 873e 2e25 c33d f8d5 b63e
00000360: 3b38 b43d 386b e4be 3e8d ec3e cabd 9e3e
00000370: dd93 133d 96a0 aebe e425 c43d 2b8e 67be
00000380: a0a7 b6be be58 183f 669a 243f ee01 00bf
00000390: 191a f5bd 1133 d23e aa55 283f 52b7 923d
000003a0: 9f29 cb3d 8ca9 c43e 5f91 663e 26b7 f13d
000003b0: d4b2 de3e dddb 92bd b0a6 5bbe 4a60 c1be
000003c0: 8258 d23c 8d3a d5be 071c 923e 6c46 a13d
000003d0: 1309 b5bd 2157 dcbe 6130 d6bb 10f9 263f
000003e0: 0bff ab3c 3e8a bfbe 4e81 b93d 5b55 bc3e
000003f0: 675e 26bd c5ea 3fbe 6801 c43e e098 6fbe

layer1.bias f4 [64]
0.70555997 0.29300907 0.52437866 0.69667745 0.8235852 -0.07579079 0.22011589 0.12337015
-0.01017368 0.4313554 0.61943775 -0.027722318 0.46571392 0.8169836 0.80551755 0.6374869
0.25583184 0.29953778 0.4058033 -0.01392324 0.5534925 0.7804537 0.35524386 0.6847772
0.5020375 0.35138106 -0.05317964 0.24414045 0.24902423 -0.011712445 0.32244244 -0.091220416
0.6311809 0.7134764 0.5609661 0.66034865 0.6843111 0.63664246 0.64907175 0.5701867
0.6901441 0.8383306 0.24666628 0.69959545 0.33281195 0.3500181 -0.24019375 0.2918437
0.32497978 -0.034151733 0.76857543 0.15240148 -0.014206855 -0.030474532 0.6562231 0.6242455
0.2927485 0.3414335 0.65064794 0.7032782 0.50864834 0.3740227 0.7034338 0.47594732
00000000: 949f 343f 4905 963e ae3d 063f 7459 323f
00000010: 7bd6 523f 3438 9bbd 0f66 613e 7da9 fc3d
00000020: 82af 26bc 9dda dc3e 7993 1e3f ea19 e3bc
00000030: 0e72 ee3e d625 513f 6636 4e3f 5732 233f
00000040: 64fc 823e 045d 993e 73c5 cf3e 4d1e 64bc
00000050: afb1 0d3f d0cb 473f 86e2 b53e 8f4d 2f3f
00000060: 8885 003f 38e8 b33e e5d2 59bd f4ff 793e
00000070: 3500 7f3e 8ee5 3fbc 2d17 a53e c5d1 babd
00000080: 1295 213f 64a6 363f 799b 0f3f 9c0c 293f
00000090: 032f 2f3f 00fb 223f 9129 263f c1f7 113f
000000a0: 49ad 303f d69c 563f 1696 7c3e b018 333f
000000b0: 5466 aa3e 9335 b33e 5af5 75be 8a6c 953e
000000c0: c063 a63e b0e2 0bbd 5cc1 443f 220f 1c3e
000000d0: dec3 68bc baa5 f9bc 3dfe 273f 8ece 1f3f
000000e0: 22e3 953e 5fd0 ae3e dd90 263f 0a0a 343f
000000f0: c736 023f e77f bf3e 3d14 343f 5eaf f33e

layer2.weight f4 [64, 64]
0.052551128 0.029494649 0.0789225 -0.0730299 4.4728542e-05 -0.04050465 0.030001314 -0.07720676
0.11046724 -0.028744653 -0.10506113 0.031584077 0.0934861 -0.10919539 -0.097908966 -0.052901655
0.02704143 0.04444033 0.014225003 0.037158743 -0.023539154 -0.017481493 -0.00020691087 -0.089344904
-0.12879941 0.06192691 -0.12732066 -0.09749223 -0.066087484 0.09925787 0.0070614014 0.03489538
0.053170703 -0.09888144 0.06986796 0.102666594 -0.05978448 -0.008360455 -0.115255415 0.013871998
0.084106624 0.017103724 -0.01313437 0.0008227039 0.082731314 -0.024132289 0.072973184 -0.058878314
-0.12319288 -0.035332065 -0.033443857 0.077046245 -0.04911779 -0.119499 0.061362002 -0.08651057
-0.034551542 0.06823695 -0.01958356 0.0016648761 0.007554196 -0.021286724 -0.07555916 0.029724052
-0.024131078 -0.06946458 0.02393748 -0.013802278 -0.015181555 0.06323604 -0.104697496 -0.001528038
-0.027066898 -0.04161659 -0.040607966 -0.11546551 -0.1181285 -0.034021534 -0.008290847 -0.004058227
-0.02225113 0.041593283 -0.072255164 -0.1191557 -0.12119791 -0.1284013 -0.0034488821 0.04662373
0.008876834 -0.05078848 0.084201224 0.085495085 -0.06366415 -0.13912013 0.006091679 -0.10806267
-0.04127734 0.06255416 0.081398875 0.10050558 0.055647153 0.022268703 -0.053262416 -0.035405394
0.04557568 0.1078456 0.04790646 -0.047537565 0.08402414 -0.13294683 -0.03291855 0.0703246
0.048273217 -0.061277255 -0.07459959 -0.12925968 0.09602934 0.05309146 0.09933165 0.05720972
-0.027178409 0.015090926 0.06610392 -0.0011275305 -0.08009833 0.063738324 -0.12739801 -0.0425721
0.08228215 0.34323174 0.19038059 0.15047193 0.047454305 0.31676388 0.07650338 0.3753455
0.6685706 -0.5172947 -0.59339327 0.24655958 0.03230791 -0.18875432 -0.49098614 -0.50008
0.085074864 -0.59172446 -0.024424497 0.24876617 0.13533992 -0.10784441 0.19223559 0.10868965
0.07725644 0.2070394 0.19121593 0.2877112 -0.27630356 0.8511718 0.29192695 0.4042817
-0.30103654 -0.27580503 -0.30383378 0.13450022 0.19776373 -0.43315783 0.1691685 0.26364306
-0.09380957 -0.4010486 0.3349202 0.20689864 0.30064544 0.2702587 0.25909707 0.065669075
0.07029706 0.40899494 0.1373339 0.1596665 0.75568736 0.55611986 0.018366536 0.15746297
0.4083034 0.26863405 -0.095608845 -0.36219823 0.17849512 0.2954381 0.10017415 0.20205873
0.32447663 0.1464106 0.34906447 0.27503416 0.18558462 -0.37884453 0.09641148 0.10189371
-0.50201213 0.18425478 0.33027616 -0.2574903 0.20999683 0.34456235 0.22354154 0.1516163
0.33728442 -0.0048396634 0.2073426 -0.5036372 0.3066899 0.3875528 0.2959154 0.27187788
0.2950495 0.2497009 -0.33609483 0.008636513 -0.09254058 -0.709458 0.1819554 -0.25998488
0.15130684 0.3066751 0.18133514 0.26791263 0.3482681 0.32270733 0.28158137 0.264474
0.3158895 0.1604384 0.18993048 0.3648487 0.26083466 0.10032905 -0.10883131 0.2614642
0.24614914 -0.07828376 0.29732266 0.17956468 -0.5980753 -0.39634076 0.36571866 0.27280536
0.049451716 0.19468796 0.28635594 0.24667029 0.29070786 0.22374786 0.26063895 0.27103004
00000000: da3f 573d c39e f13c 1fa2 a13d b390 95bd
00000010: e89a 3b38 34e8 25bd 51c5 f53c 941e 9ebd
00000020: a63c e23d e879 ebbc 4a2a d7bd 4e5e 013d
00000030: a475 bf3d d5a1 dfbd 7f84 c8bd 68af 58bd
00000040: fd85 dd3c 1007 363d fd0f 693c c433 183d
00000050: 2fd5 c0bc 5935 8fbc 37f6 58b9 76fa b6bd
00000060: fee3 03be 12a7 7d3d 5960 02be 02aa c7bd
00000070: e058 87bd b647 cb3d 5463 e73b 75ee 0e3d
00000080: 86c9 593d 5a82 cabd ef16 8f3d dd42 d23d
00000090: 92e0 74bd 4afa 08bc 080b ecbd 6047 633c
000000a0: 1840 ac3d 1c1d 8c3c 8a31 57bc b9aa 573a
000000b0: 096f a93d 14b1 c5bc f772 953d 632a 71bd
000000c0: 8c4c fcbd 5bb8 10bd 6dfc 08bd 6cca 9d3d
000000d0: bc2f 49bd e4bb f4bd b956 7b3d 742c b1bd
000000e0: eb85 0dbd d0bf 8b3d b46d a0bc f937 da3a
000000f0: 3089 f73b 7f61 aebc c3be 9abd db7f f33c
00000100: 8aae c5bc 7243 8ebd 8918 c43c f322 62bc
00000110: 0fbc 78bc e681 813d a46b d6bd 7248 c8ba
00000120: 66bb ddbc 2876 2abd 8a54 26bd 2e79 ecbd
00000130: 5bed f1bd 2a5a 0bbd 55d6 07bc e0fa 84bb
00000140: 0048 b6bc b85d 2a3d 84fa 93bd e707 f4bd
00000150: 9c36 f8bd a17b 03be a406 62bb 86f8 3e3d
00000160: 2470 113c 9507 50bd b171 ac3d 0c18 af3d
00000170: 5a62 82bd 8275 0ebe b59c c73b f64f ddbd
00000180: 6e12 29bd 651c 803d 74b4 a63d dfd5 cd3d
00000190: 45ee 633d db6c b63c b129 5abd 3f05 11bd
000001a0: 90ad 3a3d 27de dc3d 9039 443d c0b6 42bd
000001b0: d914 ac3d 3723 08be 9ad5 06bd 5806 903d
000001c0: 23ba 453d dcfd 7abd abc7 98bd a65c 04be
000001d0: 08ab c43d 6e76 593d 646e cb3d bd54 6a3d
000001e0: 41a5 debc ee3f 773c 7e61 873d a5c9 93ba
000001f0: 980a a4bd 3d89 823d a074 02be 1560 2ebd
00000200: 8b83 a83d 12bc af3e 21f3 423e 5015 1a3e
00000210: 725f 423d e02e a23e cead 9c3d 492d c03e
00000220: 7127 2b3f 6d6d 04bf 9fe8 17bf 1d7a 7c3e
00000230: 4d55 043d d048 41be 8962 fbbe 3e05 00bf
00000240: bb3b ae3d 417b 17bf e215 c8bc 8fbc 7e3e
00000250: 8c96 0a3e 88dd dcbd 68d9 443e ae98 de3d
00000260: a038 9e3d 2302 543e 1cce 433e e24e 933e
00000270: a977 8dbe 65e6 593f 7377 953e 03fe ce3e
00000280: 7621 9abe 5136 8dbe 1a90 9bbe 6dba 093e
00000290: 9382 4a3e ddc6 ddbe 823a 2d3e 39fc 863e
000002a0: 3b1f c0bd 3e56 cdbe a97a ab3e 3ddd 533e
000002b0: 33ee 993e 595f 8a3e 5fa8 843e 827d 863d
000002c0: e8f7 8f3d c967 d13e 42a1 0c3e 9d7f 233e
000002d0: ba74 413f df5d 0e3f 6b75 963c f93d 213e
000002e0: 250d d13e 678a 893e 92ce c3bd 0c72 b9be
000002f0: 6dc7 363e aa43 973e 1b28 cd3d 7ce8 4e3e
00000300: cd21 a63e a9ec 153e 94b8 b23e 47d1 8c3e
00000310: e509 3e3e e9f7 c1be 6273 c53d a6ad d03d
00000320: de83 00bf 49ad 3c3e f519 a93e c5d5 83be
00000330: 6909 573e 7a6a b03e 13e8 643e 4e41 1b3e
00000340: 8bb0 ac3e 0a96 9ebb 9e51 543e 5eee 00bf
00000350: 7506 9d3e 526d c63e 3982 973e 9433 8b3e
00000360: ba10 973e 98b1 7f3e 9f14 acbe 2980 0d3c
00000370: ea85 bdbd 0a9f 35bf 8452 3a3e bd1c 85be
00000380: 2ef0 1a3e 8504 9d3e ebaf 393e d82b 893e
00000390: 3250 b23e e539 a53e 6f2b 903e 2369 873e
000003a0: 45bc a13e f749 243e 237d 423e 73cd ba3e
000003b0: 1f8c 853e 5179 cd3d f3e2 debd a3de 853e
000003c0: 850e 7c3e 3c53 a0bd ad3a 983e cedf 373e
000003d0: 761b 19bf 2ded cabe 7a3f bb3e 25ad 8b3e
000003e0: e28d 4a3d 485c 473e 3f9d 923e 2397 7c3e
000003f0: a9d7 943e 291e 653e 7872 853e 73c4 8a3e

layer2.bias f4 [64]
-0.009059901 -0.061445083 0.011039903 0.27641502 0.2287556 -0.0782798 0.23551942 -0.03931132
0.24118796 -0.024342228 0.17529202 0.044518907 0.27024063 0.04647487 0.26468074 0.26966605
0.09781247 0.17593049 0.2901775 0.3042896 0.22942126 0.04490271 0.18880169 -0.08407303
0.19036067 0.045539457 -0.06167093 0.34086972 0.23513103 0.30177647 0.27830762 0.1789243
0.1820572 0.20702428 0.34763342 0.31005073 0.102441356 -0.11906901 0.29214114 0.11823958
0.22715524 0.17921501 0.3109386 -0.046461854 0.27078256 0.31415293 0.044358265 0.08436997
0.031501457 0.21628085 0.31157914 0.34428748 -0.0012539673 -0.086748436 -0.038041767 -0.0111952685
-0.069251716 0.12855661 0.17487805 0.14839496 0.07192985 0.18507342 -0.043869905 0.055239953
00000000: fb6f 14bc d7ad 7bbd b6e0 343c 4586 8d3e
00000010: e83e 6a3e 2951 a0bd 012c 713e e804 21bd
00000020: faf9 763e 5a69 c7bc c07f 333e 7559 363d
00000030: fb5c 8a3e 6f5c 3e3d 3c84 873e ab11 8a3e
00000040: e751 c83d 1f27 343e 2592 943e d9cb 9b3e
00000050: 68ed 6a3e e7eb 373d 3b55 413e 7b2e acbd
00000060: e8ed 423e 9587 3a3d a89a 7cbd 7a86 ae3e
00000070: 30c6 703e 7282 9a3e 567e 8e3e ef37 373e
00000080: 346d 3a3e 2cfe 533e 02fd b13e f8be 9e3e
00000090: c6cc d13d 74da f3bd 8693 953e 9827 f23d
000000a0: 629b 683e 2484 373e 5833 9f3e c94e 3ebd
000000b0: 03a4 8a3e a7d8 a03e 03b1 353d 2aca ac3d
000000c0: ac07 013d ba78 5d3e 4d87 9f3e 7346 b03e
000000d0: 295c a4ba 2aa9 b1bd afd1 1bbd 5c6c 37bc
000000e0: d8d3 8dbd 58a4 033e 3b13 333e d9f4 173e
000000f0: f54f 933d e383 3d3e eeb0 33bd 4a43 623d

layer3.weight f4 [1, 64]
-0.11150287 -0.053170405 -0.65184796 0.39010268 0.31577754 -0.09936793 0.41144317 -0.054493874
0.42938194 -0.012644407 0.38891298 -0.063291796 0.35265532 -0.5528039 0.29678938 0.30472675
-0.06593724 -0.5185979 0.3240706 0.3252902 0.346035 -0.026205266 0.36466303 -0.03423689
0.36479017 -0.5163647 0.08898491 0.38448164 0.4204976 0.39963517 0.35477537 -0.5798296
0.34768513 0.3598695 0.3727774 0.35374343 -0.013220163 -0.5797017 0.36100987 0.44811928
0.34159943 0.4061445 0.42432472 0.08973571 0.29570994 0.39124548 -0.66046566 -0.0700603
-0.5901413 0.38717014 0.33217275 0.35727713 -0.049738437 -0.5775296 -0.105846696 -0.06829643
-0.03239583 0.40604955 0.40912372 0.3644488 -0.5412432 0.3488615 -0.036125615 0.0010451748
00000000: 9e5b e4bd 36c9 59bd 82df 26bf 8abb c73e
00000010: 98ad a13e 6a81 cbbd aea8 d23e f834 5fbd
00000020: f3d7 db3e 7d2a 4fbc 9a1f c73e 219f 81bd
00000030: 3d8f b43e 8e84 0dbf c7f4 973e 2505 9c3e
00000040: 1b0a 87bd d5c2 04bf 95ec a53e 708c a63e
00000050: 802b b13e 6dac d6bc 1db5 ba3e fb3b 0cbd
00000060: c7c5 ba3e 7a30 04bf b83d b63d c7da c43e
00000070: 764b d73e fb9c cc3e 1ea5 b53e b66f 14bf
00000080: c903 b23e d140 b83e aedc be3e dc1d b53e
00000090: 6299 58bc 5567 14bf 49d6 b83e e46f e53e
000000a0: 1fe6 ae3e 2cf2 cf3e 1741 d93e 5bc7 b73d
000000b0: 4b67 973e 5451 c83e 4714 29bf c67b 8fbd
000000c0: 8013 17bf 2a3b c63e 8c12 aa3e 07ed b63e
000000d0: 88ba 4bbd fbd8 13bf 27c6 d8bd 00df 8bbd
000000e0: 7db1 04bd bae5 cf3e aa78 d13e 0899 ba3e
000000f0: ea8e 0abf f99d b23e 74f8 13bd 3ffe 883a
