CartPoleWeights/ppo_actor.pth (torch, 21084 bytes, 6 tensors)

layer1.weight f4 [64, 4]
-0.23514646 -0.2717728 0.07014594 -0.32157728 -0.12185974 -0.09450599 0.7777578 0.23313397
0.22292604 -0.15320657 0.029397566 0.109935395 -0.13273863 -0.44903615 0.29304457 0.2609883
0.0043797507 0.13551873 -0.6731947 -0.23275311 -0.09887347 -0.030436605 -0.77227587 -0.036326
-0.3388042 -0.4795972 -0.068013296 0.24868664 -0.23260783 -0.0879178 0.55572593 0.5465959
0.035044443 0.30467898 0.7322587 0.3250392 -0.05484919 -0.22056073 0.089675635 -0.5485742
-0.41152462 0.049114063 0.20775326 -0.08880691 -0.30621967 0.28859267 0.45459265 0.089493245
-0.31376642 -0.3444223 -0.17270134 -0.49339476 -0.366328 0.35755703 0.499901 0.42472285
0.15768816 3.372236e-05 -0.32474697 0.20755069 0.24038173 -0.28230187 0.6758364 0.017490793
0.18403533 0.112675965 0.3174557 0.11592204 0.2236849 -0.0022856425 -0.28149778 -0.567342
0.007563596 -0.15431634 0.11152447 0.04450601 0.13626227 0.080009565 -0.5137815 -0.53272086
0.3173187 0.036398612 0.23572397 0.0727512 0.342119 -0.28164926 0.14635691 0.47197372
0.025140265 -0.019344566 -0.65088123 0.15030253 0.24330616 -0.45591265 -0.8081689 -0.28070256
-0.31892344 0.3563425 -0.3766074 0.08536322 -0.45521528 -0.42595926 0.044060532 0.050974503
0.25562784 -0.054351598 0.6525793 0.16302483 -0.47668126 -0.22906601 0.43866178 0.39659745
-0.36470225 0.27675465 -0.05845662 -0.21347234 0.43099025 0.10249616 -0.613267 0.07661572
-0.020634493 -0.12481963 -0.5196071 0.06819228 0.03612389 0.107690096 0.16116571 0.23204052
0.03610521 0.25561056 -0.04387574 0.552058 -0.13309486 0.15457883 -0.12638345 0.3117417
-0.4619003 -0.2590375 -0.48631522 -0.44173345 0.3191793 -0.5019665 -0.24265276 -0.27159792
0.4233477 0.02936131 0.8324964 0.28129533 0.44859704 -0.016753703 0.3289453 0.072818376
0.2367567 0.13272606 -0.3258365 -0.42778283 -0.3221159 -0.4077822 0.22130303 0.182277
-0.23664978 0.42885873 -0.6088801 -0.427998 0.008636744 -0.37356812 -0.27449688 -0.39466774
-0.3369175 0.36934212 -0.313074 -0.2338612 -0.31616476 -0.47429538 -0.050007135 -0.57434636
0.34939206 0.5094281 0.2803038 0.34665236 0.12177163 0.44072154 0.68007773 0.4472116
0.14661326 0.46963006 0.8137214 0.6407689 -0.11732211 -0.051667336 -0.030816622 -0.38907298
-0.02839652 -0.16229916 0.5007397 0.35097504 0.38707548 0.2741996 0.39688808 0.2576814
0.3635554 -0.31302392 -0.09832345 0.19618881 -0.21660756 0.06738642 -0.725684 -0.25880542
-0.18077485 -0.12848659 0.09223415 0.21070108 -0.2638817 0.42925256 -0.44713062 -0.20687585
-0.19123656 0.2028375 -0.58621377 -0.072061196 -0.10810229 -0.2314745 0.09370255 0.18432482
0.41970533 0.40386897 0.433253 0.57044244 -0.34663814 -0.08126065 0.08910649 0.40454695
-0.06399988 0.2271342 0.52005655 0.5166025 -0.21247941 -0.14005694 -0.12411233 0.012598529
-0.41581973 -0.20294 -0.5511084 -0.3987535 -0.37565577 0.43143883 0.20257 0.2959246
0.32263896 0.3889723 -0.67811465 -0.43109712 -0.48643392 -0.31798404 -0.21447445 -0.4350225
00000000: 3cca 70be ce25 8bbe ada8 8f3d c7a5 a4be
00000010: 9991 f9bd 5b8c c1bd 231b 473f acba 6e3e
00000020: b946 643e 2fe2 1cbe 2ad3 f03c cf25 e13d
00000030: a3ec 07be 11e8 e5be f009 963e 42a0 853e
00000040: 0384 8f3b 6cc5 0a3e 7d56 2cbf d556 6ebe
00000050: 2d7e cabd 3056 f9bc dfb3 45bf 92ca 14bd
00000060: be77 adbe c48d f5be 8e4a 8bbd b6a7 7e3e
00000070: bf30 6ebe 3f0e b4bd 0e44 0e3f b5ed 0b3f
00000080: c38a 0f3d e2fe 9b3e 4e75 3b3f 8a6b a63e
00000090: 8ba9 60bd acda 61be dca7 b73d 5c6f 0cbf
000000a0: 5bb3 d2be d42b 493d 45bd 543e 66e0 b5bd
000000b0: d3c8 9cbe 6bc2 933e 5ec0 e83e 3c48 b73d
000000c0: fea5 a0be 1f58 b0be 9fd8 30be 3d9e fcbe
000000d0: 588f bbbe b711 b73e 06f3 ff3e 4675 d93e
000000e0: 0179 213e 1c71 0d38 3c45 a6be 2b88 543e
000000f0: a126 763e df89 90be 9d03 2d3f da48 8f3c
00000100: c273 3c3e a8c2 e63d 8e89 a23e 8968 ed3d
00000110: a80d 653e b8ca 15bb 7a20 90be 533d 11bf
00000120: 0bd8 f73b 1a05 1ebe f166 e43d ef4b 363d
00000130: 5688 0b3e 0edc a33d 2f87 03bf 6560 08bf
00000140: 9977 a23e b616 153d a061 713e 95fe 943d
00000150: 392a af3e 5534 90be 96de 153e 8aa6 f13e
00000160: f5f2 cd3c 7f78 9ebc 27a0 26bf e8e8 193e
00000170: 4025 793e 626d e9be 28e4 4ebf 3fb8 8fbe
00000180: ef49 a3be 8672 b63e afd2 c0be e9d2 ae3d
00000190: fa11 e9be 5517 dabe d178 343d a4ca 503d
000001a0: a7e1 823e c89f 5ebd 700f 273f fbef 263e
000001b0: 910f f4be 4890 6abe 4798 e03e d20e cb3e
000001c0: 41ba babe c9b2 8d3e 3570 6fbd 7e98 5abe
000001d0: c1aa dc3e 82e9 d13d 11ff 1cbf b4e8 9c3d
000001e0: ab09 a9bc 6fa1 ffbd f904 05bf 65a8 8b3d
000001f0: a5f6 133d a08c dc3d a008 253e 089c 6d3e
00000200: 0fe3 133d 63df 823e 0cb7 33bd ac53 0d3f
00000210: 054a 08be ea49 1e3e aa6a 01be 9c9c 9f3e
00000220: 327e ecbe 90a0 84be 4ffe f8be e32a e2be
00000230: 786b a33e e080 00bf f779 78be e20e 8bbe
00000240: 08c1 d83e 2187 f03c 7c1e 553f f105 903e
00000250: 83ae e53e 103f 89bc 856b a83e cd21 953d
00000260: 5970 723e 57e9 073e 0bd4 a6be 5a06 dbbe
00000270: 60ec a4be d4c8 d0be 439d 623e d2a6 3a3e
00000280: 5254 72be 5f93 db3e 91df 1bbf 8e22 dbbe
00000290: 2181 0d3c 5244 bfbe db8a 8cbe e411 cabe
000002a0: 7380 acbe 691a bd3e 3c4b a0be 4f79 6fbe
000002b0: 59e0 a1be d8d6 f2be 48d4 4cbd 5d08 13bf
000002c0: 84e3 b23e e169 023f fb83 8f3e 6b7c b13e
000002d0: 6863 f93d 41a6 e13e 9319 2e3f ebf8 e43e
000002e0: c921 163e 5a73 f03e 0c50 503f 6e09 243f
000002f0: 9346 f0bd 21a1 53bd 2473 fcbc 9334 c7be
00000300: d29f e8bc c031 26be 7a30 003f 00b3 b33e
00000310: c22e c63e e463 8c3e ea34 cb3e d1ee 833e
00000320: ef23 ba3e ac44 a0be ce5d c9bd b8e5 483e
00000330: 5fce 5dbe e401 8a3d 6dc6 39bf 2582 84be
00000340: 0b1d 39be fd91 03be 42e5 bc3d 06c2 573e
00000350: 811b 87be fec6 db3e 4eee e4be 43d7 53be
00000360: 84d3 43be a2b4 4f3e 1b12 16bf d294 93bd
00000370: bc64 ddbd a707 6dbe 1fe7 bf3d a5bf 3c3e
00000380: 9ee3 d63e eac7 ce3e 56d3 dd3e 8408 123f
00000390: 8e7a b1be fc6b a6bd 777d b63d c720 cf3e
000003a0: 5e12 83bd de95 683e 6d22 053f 1040 043f
000003b0: 3494 59be 166b 0fbe 9b2e febd 106a 4e3c
000003c0: 53e6 d4be 81cf 4fbe 7115 0dbf 6b29 ccbe
000003d0: f455 c0be 8de5 dc3e 836e 4f3e 6e83 973e
000003e0: ef30 a53e 6127 c73e ec98 2dbf c3b8 dcbe
000003f0: de0d f9be cece a2be 319f 5bbe 45bb debe

layer1.bias f4 [64]
-0.366527 0.15921989 -0.4438912 -0.2156575 -0.03951693 0.3762621 -0.4509082 0.34982434
0.16904153 0.14847827 -0.4876311 0.016027374 0.5141908 -0.35106173 -0.30010843 0.24609272
-0.3743518 0.14839782 -0.18346311 0.2056221 -0.3343016 0.079812765 0.32962954 0.2829576
-0.562249 0.049320597 0.4772038 -0.39901677 0.3364493 0.109307095 0.40814784 -0.2093917
0.1583233 -0.44761658 0.008697137 0.24406542 0.3078853 -0.3847547 -0.27267578 -0.11702562
0.45966485 0.1657226 -0.3138227 0.06617597 -0.295267 0.48285648 0.32036877 0.2079701
0.13356793 -0.06942063 -0.40960026 0.32488826 0.07470684 0.40212247 -0.20211689 0.19305713
0.3739543 0.30718157 0.42581642 -0.41816375 0.3760355 0.18149883 -0.322195 0.27468264
00000000: 6da9 bbbe 8a0a 233e b545 e3be 52d5 5cbe
00000010: 81dc 21bd 6da5 c03e 71dd e6be 2d1c b33e
00000020: 3919 2d3e b00a 183e c9aa f9be d74b 833c
00000030: 02a2 033f 5dbe b3be d0a7 99be bbff 7b3e
00000040: 0aab bfbe 99f5 173e c1dd 3bbe 9a8e 523e
00000050: 9429 abbe e074 a33d 34c5 a83e d2df 903e
00000060: 8def 0fbf 6504 4a3d 0e54 f43e ed4b ccbe
00000070: 1543 ac3e 66dc df3d c1f8 d03e c76a 56be
00000080: 811f 223e 002e e5be 707e 0e3c 49ec 793e
00000090: 24a3 9d3e 91fe c4be 299c 8bbe 21ab efbd
000000a0: 3159 eb3e 2fb3 293e 5ead a0be 4487 873d
000000b0: 3c2d 97be f738 f73e 6007 a43e 1df6 543e
000000c0: 08c6 083e 672c 8ebd 20b7 d1be c157 a63e
000000d0: e6ff 983d ffe2 cd3e bbf7 4ebe c5b0 453e
000000e0: f076 bf3e e746 9d3e 9c04 da3e 8f19 d6be
000000f0: ba87 c03e d4da 393e bef6 a4be 34a3 8c3e

layer2.weight f4 [64, 64]
-0.19718552 -0.10750617 -0.027307786 -0.098778516 0.042225968 0.17996168 -0.10112283 -0.055939537
-0.19315654 0.19359027 0.0044011776 -0.16058584 -0.0349109 0.10416014 -0.06091127 -0.030753559
-0.037687514 0.16802494 0.04648915 0.18656844 0.05793396 -0.06439827 0.188662 0.097464055
0.060804125 0.09843149 -0.09174224 -0.13365005 -0.0069695706 -0.041825216 0.17171043 -0.07368587
-0.1437345 -0.006413083 0.12535495 0.1141541 -0.17351174 0.06937561 0.053276103 0.12963712
-0.0039181593 0.14160126 -0.0888712 0.0005668607 0.07190999 -0.096572466 -0.21446076 0.058296476
-0.14543438 -0.056337394 0.05859892 0.08137784 0.053896908 0.071915075 -0.2515916 0.010631877
-0.009995283 -0.02444805 -0.036282912 0.10528879 0.060208816 -0.055107124 0.13168958 0.2026902
0.007839168 -0.117260434 0.044986527 0.107016444 0.11551873 0.07515139 -0.06885678 -0.105494425
-0.14271292 0.016908206 0.09100647 -0.13815638 0.037524793 -0.06429991 0.04487157 -0.057353105
0.059342843 0.03127336 -0.10955653 0.010986566 0.058390252 -0.009725779 0.15786383 0.23898286
-0.07561707 -0.001102399 -0.109853014 0.0033487133 0.13261613 0.13483256 0.04145711 -0.08158627
0.010617883 -0.01770899 -0.02591214 -0.010739511 -0.14979471 -0.13011734 -0.07726769 0.024303019
0.1863487 0.24126543 -0.09169676 0.12601763 0.054597076 0.015869705 -0.011590742 0.18156101
-0.089826226 0.040795587 0.016930882 0.15732485 0.060029194 0.16482201 -0.2268841 0.13872969
-0.056952655 -0.033197705 -0.13341479 -0.09837446 0.18835095 -0.02293499 0.028087625 0.11505965
-0.07869378 0.07852907 0.046363965 -0.018026114 -0.05948816 -0.1155673 0.015678868 -0.09150546
0.096657544 -0.027069237 0.0008342266 -0.10331653 -0.06724592 0.07864478 -0.12486401 -0.060880892
0.10350741 0.020131802 -0.042444393 -0.07752707 0.034764115 0.038008746 0.0862325 -0.02324061
-0.11299727 -0.11760239 -0.0009975976 -0.12195602 -0.07780935 0.07969742 -0.03657304 -0.017928366
-0.03957239 0.09498292 -0.019052943 -0.07099385 -0.0941889 -0.04816357 0.047286987 -0.02205956
0.03837949 -0.07430713 0.08629915 0.007714331 -0.09178598 -0.022554187 0.061389524 -0.11019962
0.020515407 0.036588307 0.048359435 0.092891775 0.11284775 0.036295142 0.073663004 -0.10047309
-0.00093758566 -0.10047631 -0.048751652 -0.061742976 -0.00051047886 0.065705255 -0.03573739 -0.046380345
-0.20138454 0.038866065 0.078705885 -0.08192376 0.067351654 0.064422935 0.029586775 0.019949421
-0.06685676 0.1052854 0.004147051 -0.028069153 -0.03265657 -0.06841329 0.024366261 0.05110152
0.10673421 0.11022725 -0.03604815 0.16326532 0.08798396 0.016823895 0.015164332 0.17582688
-0.06966689 0.022733202 -0.054848906 0.035641912 0.14324717 -0.035334222 0.023524173 -0.056146935
-0.16728342 0.015596382 0.18242475 -0.0029240537 -0.08533524 0.03181734 0.10705658 -0.075110026
0.14076462 0.12763351 -0.010374039 0.1359569 -0.06260271 -0.028807929 -0.17216553 0.17771511
0.029800566 -0.104019046 0.0150951175 0.14937963 0.006978675 0.031936523 -0.18483101 0.030202596
-0.17353982 0.016588364 -0.028063873 -0.08829167 -0.00088221696 -0.063723505 0.030072639 0.11142019
00000000: 00eb 49be 322c dcbd 94b4 dfbc 644c cabd
00000010: 23f5 2c3d e047 383e 7c19 cfbd db20 65bd
00000020: d4ca 45be 873c 463e c137 903b 9d70 24be
00000030: bbfe 0ebd e951 d53d 197e 79bd e3ee fbbc
00000040: 395e 1abd bb0e 2c3e 686b 3e3d cc0b 3f3e
00000050: 294c 6d3d 3de3 83bd 9c30 413e 3c9b c73d
00000060: bf0d 793d 7396 c93d 5be3 bbbd 8fdb 08be
00000070: ff60 e4bb eb50 2bbd dcd4 2f3e 9ee8 96bd
00000080: 232f 13be d724 d2bb 0c5d 003e a0c9 e93d
00000090: 10ad 31be cd14 8e3d 0b38 5a3d 98bf 043e
000000a0: e763 80bb ecff 103e 1b02 b6bd 6199 143a
000000b0: 8b45 933d c9c7 c5bd 9a9b 5bbe 49c8 6e3d
000000c0: c0ec 14be 0ac2 66bd 6c05 703d 6da9 a63d
000000d0: 01c3 5c3d 3648 933d 9dd0 80be 5331 2e3c
000000e0: 41c3 23bc 4747 c8bc 649d 14bd a6a1 d73d
000000f0: 859d 763d 02b8 61bd a2d9 063e 058e 4f3e
00000100: db6f 003c 3d26 f0bd cb43 383d 702b db3d
00000110: 1595 ec3d f9e8 993d c904 8dbd 760d d8bd
00000120: 5623 12be 1483 8a3c 9a61 ba3d de78 0dbe
00000130: 99b3 193d acaf 83bd 40cb 373d 17eb 6abd
00000140: 7b11 733d 7f18 003d 2d5f e0bd ff00 343c
00000150: 9e2a 6f3d e058 1fbc 0ea7 213e ecb7 743e
00000160: 1fdd 9abd 5f7e 90ba 9efa e0bd 1676 5b3b
00000170: 86cc 073e 8c11 0a3e eece 293d b416 a7bd
00000180: a1f6 2d3c 7212 91bc b245 d4bc c6f4 2fbc
00000190: c963 19be 7b3d 05be 863e 9ebd 2017 c73c
000001a0: 32d2 3e3e 490e 773e 83cb bbbd c40a 013e
000001b0: 2fa1 5f3d 2f01 823c 18e7 3dbc 21eb 393e
000001c0: d0f6 b7bd 4619 273d a2b2 8a3c c419 213e
000001d0: 2ce1 753d 1ac7 283e 4e54 68be 280f 0e3e
000001e0: 3047 69bd 51fa 07bd e39d 08be 8d78 c9bd
000001f0: 12df 403e 29e2 bbbc 0518 e63c 65a4 eb3d
00000200: 342a a1bd d9d3 a03d 24e8 3d3d 80ab 93bc
00000210: dba9 73bd 8cae ecbd f870 803c 3767 bbbd
00000220: 64f4 c53d 4ec0 ddbc 00b0 5a3a 9e97 d3bd
00000230: 3bb8 89bd 8410 a13d b4b8 ffbd 3e5e 79bd
00000240: b1fb d33d 73eb a43c 2cda 2dbd 83c6 9ebd
00000250: d164 0e3d 0faf 1b3d aa9a b03d 1763 bebc
00000260: 1d6b e7bd 86d9 f0bd d2c1 82ba 14c4 f9bd
00000270: 825a 9fbd 6738 a33d 9dcd 15bd 82de 92bc
00000280: a916 22bd 6886 c23d eb14 9cbc 3965 91bd
00000290: 1ce6 c0bd 2a47 45bd 00b0 413d 40b6 b4bc
000002a0: d033 1d3d 562e 98bd 9cbd b03d 80c8 fc3b
000002b0: 4afa bbbd 8fc3 b8bc 9573 7b3d 57b0 e1bd
000002c0: ed0f a83c 9fdd 153d 8b14 463d 0b3e be3d
000002d0: b91c e73d 37aa 143d a1dc 963d d6c4 cdbd
000002e0: 4fc8 75ba 86c6 cdbd d0af 47bd 34e6 7cbd
000002f0: a8d1 05ba 7a90 863d 5f61 12bd 51f9 3dbd
00000300: c037 4ebe 0632 1f3d 8d30 a13d a5c7 a7bd
00000310: aaef 893d 2cf0 833d f75f f23c f86c a33c
00000320: 32ec 88bd df9f d73d fce3 873b 48f1 e5bc
00000330: e5c2 05bd 441c 8cbd c19b c73c d44f 513d
00000340: 7797 da3d d3be e13d 3aa7 13bd 062f 273e
00000350: ef30 b43d 44d2 893c d273 783c f60b 343e
00000360: 84ad 8ebd fb3a ba3c 3fa9 60bd 41fd 113d
00000370: 63af 123e 9eba 10bd c4b5 c03c 54fa 65bd
00000380: 584c 2bbe f887 7f3c 8ecd 3a3e 7ba1 3fbb
00000390: 3ec4 aebd e652 023d 7b40 db3d 49d3 99bd
000003a0: 9a24 103e 5cb2 023e e0f7 29bc 4938 0b3e
000003b0: da35 80bd 9bfe ebbc 294c 30be f3fa 353e
000003c0: 5120 f43c f007 d5bd 8351 773c f9f6 183e
000003d0: 5ead e43b dfcf 023d 5744 3dbe 6f6b f73c
000003e0: 6cb4 31be 52e4 873c 35e6 e5bc 43d2 b4bd
000003f0: 9444 67ba 7881 82bd e55a f63c 4530 e43d

layer2.bias f4 [64]
0.16526261 -0.06260935 -0.12005614 0.13490786 0.1428917 -0.052063864 0.10071678 -0.0015529321
-0.0952623 0.008200191 0.09290281 -0.028783204 -0.08350385 0.052527785 -0.043949444 0.05123753
0.046576127 0.10462061 0.030357074 0.0016018463 0.11207463 -0.02019026 0.12214786 -0.14605302
0.16446917 0.16622365 0.17120837 0.053765103 0.15229064 -0.055741742 -0.08108707 0.014492903
0.17049813 -0.05782827 -0.045990974 0.034446243 -0.015073674 -0.15394269 0.13957833 0.03678721
-0.09171744 -0.058657642 0.009029558 0.115790054 0.03419983 -0.12661259 -0.10559753 -0.08370443
-0.028960515 -0.031227315 0.15622795 -0.016596127 0.15288365 -0.010029632 0.08403155 0.01865351
0.00086432416 0.041464508 0.08064646 -0.038028944 -0.09764178 0.09473463 -0.08532064 0.0113450475
00000000: 9a3a 293e 5539 80bd fedf f5bd 4925 0a3e
00000010: 3452 123e eb40 55bd 9944 ce3d c18b cbba
00000020: e118 c3bd 185a 063c d443 be3d c1ca ebbc
00000030: 1104 abbd 6027 573d 5504 34bd 72de 513d
00000040: 9cc6 3e3d 5543 d63d 66af f83c 0bf5 d13a
00000050: 6287 e53d 0b66 a5bc a828 fa3d ec8e 15be
00000060: 9b6a 283e 8836 2a3e 3f51 2f3e cc38 5c3d
00000070: 14f2 1b3e 7451 64bd fa10 a6bd a473 6d3c
00000080: 1097 2e3e 56dd 6cbd 0861 3cbd 8117 0d3d
00000090: 92f7 76bc 27a3 1dbe 9fed 0e3e 2fae 163d
000000a0: 5ad6 bbbd ff42 70bd b6f0 133c 5623 ed3d
000000b0: 1f15 0c3d bba6 01be 8543 d8bd 3a6d abbd
000000c0: 9a3e edbc 6dd0 ffbc 38fa 1f3e 9af4 87bc
000000d0: 888d 1c3e 5353 24bc bc18 ac3d 3fcf 983c
000000e0: d093 623a b0d6 293d f929 a53d 3dc4 1bbd
000000f0: 6af8 c7bd 3b04 c23d 96bc aebd 94e0 393c

layer3.weight f4 [2, 64]
0.16958998 0.19936998 0.022049265 0.09071351 0.15390283 -0.2176232 0.15865181 -0.19792256
-0.006925391 -0.07938416 -0.08728088 0.061172727 -0.07402836 -0.22036688 0.0045539113 -0.15963258
-0.18951893 0.041551128 -0.123567894 -0.13411567 0.1586174 0.21808904 -0.19288757 0.06468878
0.08183678 0.20937131 0.18560052 0.16477333 0.08193534 -0.11022916 -0.10812573 0.014532245
-0.13840127 0.043236163 0.15602927 -0.07635929 0.07166972 0.008585769 -0.095956765 -0.09256559
0.0833356 -0.14533234 -0.120554306 0.22155657 -0.06257364 -0.09195548 0.05672393 -0.081603736
0.03525992 -0.20562008 0.1194902 0.032269757 0.14782183 -0.019867498 0.24263303 -0.13634442
-0.13169117 0.056741334 -0.010089803 -0.14370568 -0.12419574 -0.23073612 0.07677621 0.026980577
-0.17498957 -0.14075513 0.029068023 -0.19217232 -0.092825994 0.16776767 -0.23059353 0.054889858
0.1934836 0.251736 0.21859692 0.08943288 0.04617768 0.07621856 0.016522784 0.1684008
0.08768381 -0.24013618 0.12439317 0.15399726 -0.08021196 -0.21655397 0.073734246 -0.04131943
-0.20574105 -0.11249124 -0.099720456 -0.14449 -0.1656106 0.24567877 0.073299184 -0.02398185
0.27715573 -0.107822366 -0.10359435 0.17248538 -0.008133321 -0.010226253 0.13461433 0.09878353
-0.046517186 0.19408451 0.13002375 -0.0971074 -0.095181696 0.07093993 0.08844211 0.19575833
-0.086641006 0.04009008 -0.20933205 0.079504274 -0.24337639 0.031862404 -0.005856183 0.17568476
0.22298652 -0.011420489 0.100714944 0.06100985 -0.089100525 0.11682018 -0.07153806 0.089790806
00000000: ffa8 2d3e a527 4c3e a9a0 b43c 01c8 b93d
00000010: b498 1d3e 9ed8 5ebe 9f75 223e 36ac 4abe
00000020: 64ee e2bb 2a94 a2bd 51c0 b2bd 4190 7a3d
00000030: 2e9c 97bd dba7 61be fa38 953b b976 23be
00000040: 4011 42be 8431 2a3d 2a11 fdbd 9e55 09be
00000050: 9a6c 223e bc52 5f3e 5284 45be 8d7b 843d
00000060: 0b9a a73d 6f65 563e 100e 3e3e 57ba 283e
00000070: b7cd a73d d3bf e1bd 0671 ddbd a718 6e3c
00000080: 10b9 0dbe 6718 313d 23c6 1f3e 4262 9cbd
00000090: 93c7 923d 53ab 0c3c fb84 c4bd 0793 bdbd
000000a0: dbab aa3d 00d2 14be 2de5 f6bd badf 623e
000000b0: 9c26 80bd 2853 bcbd 5a57 683d dc1f a7bd
000000c0: b56c 103d 128e 52be 47b7 f43d 4b2d 043d
000000d0: 9b5e 173e 2ac1 a2bc cb74 783e df9d 0bbe
000000e0: 0dda 06be 9a69 683d b34f 25bc 9527 13be
000000f0: 565a febd 1746 6cbe d83c 9d3d 5f06 dd3c
00000100: 7730 33be 1d22 10be 1020 ee3c d2c8 44be
00000110: 8e1b bebd 4acb 2b3e b620 6cbe 30d4 603d
00000120: 9120 463e 8ae3 803e dfd7 5f3e 9628 b73d
00000130: cf24 3d3d 7a18 9c3d ca5a 873c 4271 2c3e
00000140: 9293 b33d 42e6 75be d9c1 fe3d 75b1 1d3e
00000150: 2b46 a4bd 53c0 5dbe fb01 973d 903e 29bd
00000160: c8ad 52be cf61 e6bd 3d3a ccbd 30f5 13be
00000170: d395 29be 3793 7b3e e21d 963d 9675 c4bc
00000180: 5be7 8d3e f9d1 dcbd 4629 d4bd 02a0 303e
00000190: 9f41 05bc 048c 27bc 57d8 093e 054f ca3d
000001a0: ce88 3ebd 17be 463e f224 053e 3fe0 c6bd
000001b0: 9fee c2bd f448 913d 2321 b53d df74 483e
000001c0: d770 b1bd 7f35 243d 245b 56be 23d3 a23d
000001d0: a937 79be 2782 023d 39e5 bfbb b5e6 333e
000001e0: 9456 643e 011d 3bbc a343 ce3d 77e5 793d
000001f0: 567a b6bd 6b3f ef3d 8c82 92bd 3ee4 b73d

layer3.bias f4 [2]
-0.084482074 -0.10482942
00000000: f004 adbd cfb0 d6bd
