LunarLanderWeights/ppo_actor.pth (torch, 22620 bytes, 6 tensors)

layer1.weight f4 [64, 8]
0	0x3d0238d2	0.03179247
1	0xbe4aa66d	-0.19790049
2	0xbf100773	-0.56261367
3	0xbea6fce0	-0.32614803
4	0xbed7f5f0	-0.42179823
5	0xbe5351ed	-0.20636721
6	0xbdb96029	-0.09051544
7	0x3e166702	0.14687732
8	0x3ec2c0fd	0.38037863
9	0xbde83ab9	-0.113393255
10	0x3c33f0ed	0.010982734
11	0xbe1db36f	-0.1540048
12	0x3f55f2fb	0.83573884
13	0x3f10fba6	0.56633985
14	0x3d15609f	0.0364691
15	0xbe7236f9	-0.23653783
16	0x3e4f5769	0.20248188
17	0xbe3aaeac	-0.18230695
18	0xbc20d1a2	-0.009815605
19	0x3e0df4af	0.1386287
20	0x3e5d465f	0.21608876
21	0x3e31c834	0.17361528
22	0x3e886fb1	0.26647714
23	0x3e939660	0.28825665
24	0xbd78cbeb	-0.060741346
25	0x3e1623a4	0.14662033
26	0xbd960c4d	-0.07326565
27	0x3de3817e	0.11108683
28	0x3f05be42	0.52243435
29	0x3eff7c13	0.4989935
30	0x3e5ab285	0.21357162
31	0xbe80a88d	-0.25128594
32	0xbde7c876	-0.11317532
33	0x3e5233e3	0.20527606
34	0xbe863795	-0.2621428
35	0xbdc9ac2b	-0.098472916
36	0x3f044d6a	0.51680624
37	0x3e98909f	0.29797837
38	0x3d8886c2	0.06666328
39	0xbe8ebf6a	-0.27880412
40	0xbdb843f0	-0.08997333
41	0xbed53c29	-0.4164746
42	0xbdcaac2f	-0.09896123
43	0xbe3d3b1e	-0.18479583
44	0x3e2e6886	0.1703206
45	0x3e7a1679	0.24422635
46	0xbe54a5ce	-0.20766374
47	0x3e2c658c	0.16835612
48	0xbddf8f81	-0.10916043
49	0x3df474cb	0.11936339
50	0xbe943a81	-0.28950885
51	0xbe9e4416	-0.3091132
52	0x3eaae1d8	0.3337543
53	0x3f08cba3	0.53435725
54	0x3e7cbb1d	0.24680753
55	0xbcd97f6b	-0.026550015
56	0x3e89836a	0.26858073
57	0xbd43fad4	-0.04784663
58	0x3bbb1ab8	0.005709972
59	0xbe04e642	-0.12978461
60	0xbe966e78	-0.29381156
61	0x3e40bba5	0.1882158
62	0xbe91ef61	-0.28502944
63	0xbdad1abc	-0.08452365
64	0xbd1fc7e1	-0.03900898
65	0x3e5e484e	0.2170727
66	0x3e0ab8fa	0.13547125
67	0xbe855b04	-0.26046002
68	0x3f081ee2	0.53172123
69	0x3f1949fc	0.59878516
70	0x3e6053c1	0.2190695
71	0xbeb51729	-0.35369232
72	0xbedef419	-0.43545607
73	0x3e5598c9	0.20859064
74	0x3e56c98a	0.20975319
75	0xbe98dff0	-0.2985835
76	0xbe56e5a9	-0.20986046
77	0xbf10c06c	-0.5654361
78	0x3db50e10	0.08840573
79	0x3db9a3f3	0.09064474
80	0x3f0c4a88	0.54801226
81	0xbde91286	-0.11380486
82	0xbe893e1b	-0.26805195
83	0xbe8cf8b4	-0.27533495
84	0x3f018f9e	0.5060977
85	0x3e34ff26	0.17675456
86	0xbe66a671	-0.2252443
87	0xbdd6994b	-0.10478457
88	0xbe5e2c82	-0.21696666
89	0x3e5ec3ef	0.2175443
90	0x3dcf896f	0.10133635
91	0x3f0ec520	0.5576954
92	0xbe5ee261	-0.21766044
93	0x3dad15d4	0.08451429
94	0x3e28a072	0.16467455
95	0x3e904b82	0.28182608
96	0xbd2e5ffb	-0.042572003
97	0xbe450806	-0.19241342
98	0xbf03efc2	-0.51537716
99	0xbdd6d829	-0.10490448
100	0x3df32e67	0.11874085
101	0x3e74588e	0.23861906
102	0x3e037587	0.12837802
103	0xbe37178f	-0.1788008
104	0xbf0678eb	-0.52528256
105	0x3dcaa1fd	0.09894178
106	0x3e6d9f3a	0.23205271
107	0x3e48cc84	0.19609267
108	0xbf4b445c	-0.79401183
109	0x3d67249c	0.056431398
110	0xbe8c7eed	-0.27440587
111	0x3e7514c8	0.23933709
112	0x3e87c881	0.2652016
113	0x3e9e87fa	0.30963117
114	0xbee2897d	-0.4424552
115	0x3e4ad2f0	0.19807029
116	0x3edbd80d	0.4293827
117	0x3f2aa276	0.66654146
118	0x3e70bd5e	0.23509738
119	0x3cabfdc1	0.020995023
120	0x3d8715b4	0.065959364
121	0x3bd69daa	0.0065495567
122	0xbed1518e	-0.40882534
123	0x3da75bc7	0.08171802
124	0x3f357258	0.708776
125	0x3f178d8e	0.5920037
126	0x3dd919de	0.10600637
127	0xbe5ac60a	-0.21364608
128	0xbea3c306	-0.3198473
129	0xbdcf0412	-0.10108198
130	0xbe98a11c	-0.29810417
131	0x3e2da000	0.16955566
132	0xbe96a405	-0.29422012
133	0x3c746e8a	0.014918933
134	0x3e7b078d	0.24514599
135	0xbecd1d52	-0.40061432
136	0x3d6f45c7	0.058416154
137	0xbe9c48c0	-0.30524254
138	0xbe458f16	-0.19292864
139	0x3e248642	0.1606684
140	0x3d458a96	0.04822787
141	0xbe2bb120	-0.16766787
142	0xbe6623e3	-0.22474627
143	0x3e43a0c3	0.19104294
144	0xbcd1b6cd	-0.025599862
145	0x3d2ae029	0.041717682
146	0x3e93605a	0.28784448
147	0xbee1aabe	-0.44075578
148	0x3f0484ef	0.5176534
149	0xbe92e3db	-0.28689465
150	0xbead7337	-0.33876964
151	0xbea87187	-0.32899114
152	0x3d61dcee	0.055142336
153	0x3e0a536b	0.13508384
154	0xbdc91ebb	-0.098203145
155	0xbe4c43c6	-0.19947729
156	0x3f06a749	0.52599007
157	0x3ef0ac24	0.47006333
158	0xbd132904	-0.035927787
159	0xbee346d4	-0.44389975
160	0x3eb4f5a8	0.3534367
161	0x3ec272f0	0.37978315
162	0xbe953270	-0.29140043
163	0x3b8ff8ac	0.0043936577
164	0x3ef3aff7	0.47595188
165	0x3f10f3c2	0.56621945
166	0xbd98b395	-0.074561276
167	0xbea142ef	-0.3149638
168	0xbe165e4b	-0.14684407
169	0xbe25c6b9	-0.16189088
170	0xbd9fbd4e	-0.07799779
171	0xbeb37f79	-0.3505819
172	0xbebe7c6d	-0.37204304
173	0xbf395819	-0.7240005
174	0x3edf8871	0.43658784
175	0xbc10349f	-0.008801608
176	0x3e79a10f	0.24377845
177	0xbe351321	-0.17683078
178	0x3e3683d4	0.17823726
179	0xbe80696e	-0.25080436
180	0xbe7435ef	-0.23848699
181	0xbd1bdef4	-0.03805442
182	0x3e2c7a05	0.16843422
183	0x3e6c5740	0.23080158
184	0xbeccbc3d	-0.39987364
185	0xbf046610	-0.51718235
186	0xbda96c7a	-0.082726434
187	0x3b8fbf15	0.0043867924
188	0x3eb0cc9b	0.34531102
189	0xbed2f69a	-0.41203767
190	0xbe8de889	-0.27716473
191	0x3e408448	0.18800461
192	0xbdfb7ea7	-0.122800164
193	0x3e029ce3	0.1275516
194	0x3e72fa13	0.23728208
195	0xbe3a3910	-0.1818583
196	0xbe70d431	-0.23518445
197	0xbea0cb00	-0.31404877
198	0x3ed8ae08	0.42320275
199	0x3ed65367	0.41860506
200	0x3ef6f1b5	0.48231283
201	0xbe32bdf9	-0.17455281
202	0xbeb20685	-0.347706
203	0x3d214f14	0.039382055
204	0x3f1c47c5	0.6104701
205	0x3ee3795a	0.4442852
206	0x3e058dfd	0.13042445
207	0xbef76404	-0.48318493
208	0x3b1c5cd8	0.002385905
209	0x3ce1cced	0.027563537
210	0x3db92d4f	0.09041845
211	0xbe6d9475	-0.23201163
212	0x3f348519	0.7051559
213	0x3f0ee2ec	0.55815005
214	0x3e284aa2	0.1643472
215	0xbe570351	-0.20997359
216	0xbef56089	-0.47925213
217	0xbeed1912	-0.4630819
218	0xbdd1b0be	-0.10238789
219	0xbea3a3d1	-0.3196092
220	0xbdcd5e0b	-0.10027703
221	0xbf2acdbd	-0.6672018
222	0x3d5474eb	0.051869314
223	0x3e0591fb	0.13043968
224	0xbe0f7b6a	-0.14011922
225	0x3e5a2575	0.21303351
226	0xbf001235	-0.5002778
227	0xbd2f7a67	-0.04284134
228	0xbdc95569	-0.09830744
229	0x3f0e2787	0.55529064
230	0xbdf200c1	-0.1181655
231	0xbde73294	-0.11288944
232	0x3e21d51d	0.15803953
233	0xbe6b8f4c	-0.23003882
234	0xbd297b4a	-0.041377343
235	0x3e95ffcb	0.29296717
236	0xbe8af2ec	-0.2713846
237	0x3ed002e1	0.40627196
238	0xbe80a9a7	-0.25129434
239	0x3e4dbe30	0.20092082
240	0x3e69c10d	0.2282755
241	0xbc871b45	-0.016492495
242	0xbf0e4c88	-0.5558553
243	0x3da85977	0.08220189
244	0x3e19be15	0.15013917
245	0x3ee65b50	0.4499154
246	0xbc4bf06d	-0.012447459
247	0xbe643e94	-0.22289497
248	0x3e1c411c	0.15259212
249	0x3ec9e930	0.3943572
250	0x3f041971	0.5160132
251	0xbe940b2c	-0.28914773
252	0xbe975be7	-0.29562303
253	0x3e36d008	0.17852795
254	0xbc5e6314	-0.013573427
255	0xbebd5e75	-0.36986127

layer1.bias f4 [64]
0	0xbd87f700	-0.066389084
1	0x3e93e12e	0.28882736
2	0x3cfa5780	0.030559301
3	0x3e1cb052	0.15301636
4	0xbe5711f1	-0.21002938
5	0x3e0efbd6	0.13963255
6	0xbe6b9d5a	-0.23009244
7	0xbe8d3f83	-0.27587518
8	0xbe19c55f	-0.15016697
9	0x3e815340	0.25258827
10	0x3e46992c	0.19394368
11	0x3e263437	0.16230856
12	0x3e55733c	0.2084474
13	0x3e9a5dcb	0.30149683
14	0xbe05cdd2	-0.13066795
15	0x3d445f4e	0.047942452
16	0xbe63e29e	-0.22254416
17	0xbebe1d64	-0.37131798
18	0x3db912c7	0.090367846
19	0x3af1345c	0.0018402445
20	0xbe0861ac	-0.13318509
21	0x3e70a7e4	0.23501545
22	0x3e9c897e	0.30573648
23	0x3ebc8ce6	0.36826247
24	0x3e21b41c	0.15791363
25	0x3e852091	0.2600141
26	0x3d5d3f4c	0.054015443
27	0x3e9fa660	0.31181622
28	0xbdda078a	-0.10645969
29	0x3d81a80a	0.06330879
30	0xbd30e73d	-0.043189276
31	0x3e0415e2	0.12898973
32	0xbd830e2a	-0.06399186
33	0xbe4bcbdd	-0.19901986
34	0x3ea15f9b	0.31518254
35	0x3ee09cfb	0.43869767
36	0xbc403072	-0.0117303
37	0xbc80816c	-0.015686713
38	0xbe6e5d5a	-0.23277798
39	0x3e1b2ead	0.15154524
40	0x3e9094b8	0.28238463
41	0xbd04e9ab	-0.032449406
42	0xbe553f3d	-0.20824905
43	0xbbe6ff62	-0.007049487
44	0x3e115817	0.1419376
45	0x3e19d896	0.15024027
46	0x3e1e783a	0.1547555
47	0xbebac871	-0.3648105
48	0x3ee0553f	0.43815038
49	0x3ebc8d85	0.3682672
50	0xbcad6d24	-0.021170206
51	0x3e38522d	0.18000098
52	0xbe97ac6d	-0.29623738
53	0x3f07e41a	0.5308243
54	0x3ecdf5c6	0.40226573
55	0xbe1f1335	-0.1553467
56	0x3ec269a3	0.3797122
57	0xbdb00f6d	-0.08596692
58	0x3e077439	0.13227929
59	0xbcda9384	-0.026681669
60	0x3ad89b68	0.0016525807
61	0x3e384826	0.17996272
62	0x3e6045e0	0.21901655
63	0xbe8ba8e0	-0.2727728

layer2.weight f4 [64, 64]
0	0x3e5c7088	0.21527302
1	0xbe85b14a	-0.26111823
2	0xbd86eb05	-0.06587795
3	0x3d7827d3	0.060584854
4	0xbca643d0	-0.020296007
5	0x3ddac4a1	0.10682035
6	0x3cd80f47	0.026374472
7	0x3d0f861a	0.03504
8	0xbe2c5eb2	-0.16832998
9	0x3e17055c	0.14748138
10	0x3c8a5df5	0.016890505
11	0x3eecff15	0.46288362
12	0x3dc7694b	0.0973688
13	0x3f0dbdb7	0.55367607
14	0x3df239c3	0.118274234
15	0x3c536b44	0.012903992
16	0x3e3b2288	0.18274891
17	0x3ce26412	0.027635608
18	0x39a145e4	0.00030760386
19	0xbdaa1202	-0.08304216
20	0xbdba6e05	-0.09103016
21	0x3e8edd07	0.27903005
22	0x3e9471fb	0.2899321
23	0x3ea32b29	0.31868866
24	0x3d430744	0.04761435
25	0xbdb99ce3	-0.09063127
26	0xbe414e9c	-0.18877643
27	0x3e8763f3	0.26443443
28	0x3e0ffa83	0.14060406
29	0x3e074465	0.13209684
30	0x3ddadc56	0.10686557
31	0xbd81b03d	-0.06332443
32	0x3d692fc9	0.056930337
33	0x3eae23a6	0.34011573
34	0xbdd664fb	-0.10468479
35	0x3e86619c	0.26246345
36	0x3e1c204e	0.15246698
37	0xbe82ad51	-0.25522855
38	0x3dc161af	0.0944246
39	0x3e562cdc	0.2091555
40	0x3e9e74fd	0.3094863
41	0x3e1b73bf	0.15180872
42	0xbd746010	-0.059661925
43	0x3ef9e89a	0.48810273
44	0x3e9c0f9f	0.30480668
45	0xbd1f6575	-0.038915116
46	0x3e1be338	0.15223396
47	0xbc422857	-0.011850438
48	0x3e81a41d	0.2532052
49	0x3e616ecb	0.2201492
50	0x3e0c17b0	0.13680911
51	0x3eda0334	0.4258057
52	0x3e437373	0.19087009
53	0x3e9e4c91	0.3091779
54	0x3e1d93a3	0.1538835
55	0xbe43783f	-0.19088839
56	0x3d9bc74c	0.07606372
57	0x3e73f6ed	0.23824663
58	0x3f0378bf	0.5135612
59	0xbe07c1d0	-0.13257527
60	0x3f1d1228	0.6135583
61	0x3e7c99ee	0.24668095
62	0x3e935671	0.28776887
63	0xbe23dd2f	-0.16002344
64	0x3ea205e2	0.31645113
65	0xbdeb93ff	-0.115028374
66	0x3e0c3ea1	0.13695766
67	0xbd84f942	-0.06492855
68	0x3dfbf3e9	0.123023815
69	0x3df5f280	0.12009144
70	0x3e94cbcf	0.29061744
71	0x3cd94614	0.026522674
72	0xbda8bba3	-0.08238914
73	0x3c8c2205	0.017106066
74	0xbbb6d805	-0.0055799508
75	0x3e25dae9	0.16196789
76	0x3e5e8848	0.21731675
77	0x3ea6b6d5	0.32561365
78	0x3e619699	0.22030105
79	0x3e581eaa	0.21105447
80	0x3bcefb54	0.0063165817
81	0xbd4c379b	-0.049857717
82	0xbe8737cb	-0.26409754
83	0xbc1c1d5f	-0.009528487
84	0x3e005f92	0.12536457
85	0x3e3b2593	0.18276052
86	0x3da27a54	0.079334885
87	0x3c8db00d	0.017295862
88	0x3c47d693	0.012197155
89	0x3e3fa99c	0.18717045
90	0xbe315005	-0.17315681
91	0x3d1bb307	0.03801253
92	0x3e9a8ca4	0.30185425
93	0x3e18e8ee	0.14932606
94	0x3e5a32e0	0.2130847
95	0xbe8cdce8	-0.27512288
96	0x3e4515f8	0.19246662
97	0x3e90f3b7	0.2831094
98	0xbbb80647	-0.0056159827
99	0xbe292066	-0.16516265
100	0x3e011087	0.12603961
101	0xbeeb0307	-0.45900747
102	0x3cc3f2ac	0.023919426
103	0x3e232200	0.15930939
104	0x3e327515	0.17427476
105	0x3e66b007	0.22528087
106	0x3e9e68eb	0.3093942
107	0x3e8de111	0.27710775
108	0x3e07a4f9	0.13246526
109	0xbe02283d	-0.12710662
110	0xbd0c7696	-0.03429278
111	0xbde7257e	-0.11286448
112	0x3ceefc1a	0.029172946
113	0x3d619a37	0.05507871
114	0x3e69f358	0.22846735
115	0x3ea2041b	0.31643757
116	0x3e76b1d1	0.24091269
117	0xbd19d458	-0.037556022
118	0xbd084a17	-0.033273783
119	0xbd15f558	-0.03661093
120	0x3e23817c	0.15967363
121	0x3ecb8b48	0.397547
122	0x3e4d4cf6	0.2004889
123	0x3dbd6bdd	0.09249089
124	0x3ebf0ce6	0.37314528
125	0x3ec303ab	0.38088736
126	0x3ea2fdbe	0.31834215
127	0xbd7b7b7e	-0.06139707
128	0xbdadf814	-0.08494583
129	0xbd63df0c	-0.055632636
130	0x3d36353a	0.044484355
131	0xbdc88e90	-0.09792817
132	0x3d01d2ac	0.031695053
133	0xbc98b024	-0.018638678
134	0xbe02a9ed	-0.12760134
135	0x3c85c0d0	0.016327292
136	0x3c9fc608	0.019503608
137	0xbdeec9bc	-0.116595715
138	0xbdf94306	-0.12170987
139	0x3bf96bbe	0.007611721
140	0xbc2c05fd	-0.010499475
141	0x3d884bcb	0.06655081
142	0x3b8613fd	0.0040917383
143	0xbd72131c	-0.059100255
144	0x3d55c88b	0.052193206
145	0xbda3e70d	-0.08003054
146	0xbdb03885	-0.0860453
147	0xbdc0ae94	-0.09408298
148	0xbdf65e02	-0.12029649
149	0x3c813c97	0.015775962
150	0xbd161eea	-0.036650576
151	0xbc2de22a	-0.010613004
152	0x3d93367c	0.071881264
153	0x3c023e94	0.00794949
154	0xbe005253	-0.12531404
155	0x3dc660f1	0.09686459
156	0xbc3915d0	-0.011296704
157	0xbca9e98b	-0.020741245
158	0x3d78c0eb	0.060730856
159	0xbcf250e9	-0.029579597
160	0x3dd49479	0.103798814
161	0xbcce09f8	-0.025151238
162	0xbd0f05b0	-0.034917533
163	0x3b93310d	0.0044919313
164	0x3bbfbe5d	0.0058515505
165	0xbe046122	-0.12927678
166	0x3d85b3aa	0.06528409
167	0xbe064da6	-0.13115558
168	0xbdb28434	-0.08716622
169	0xbd7f6136	-0.062348567
170	0xbdd73180	-0.10507488
171	0x3d7cf220	0.061754346
172	0x3d7b3651	0.061331097
173	0xbb809639	-0.003924158
174	0x3ce64c45	0.02811254
175	0x3dd03789	0.101668425
176	0xbe0579b7	-0.13034712
177	0x3d19c14c	0.037537858
178	0x3ae262af	0.0017271842
179	0x3d46d66e	0.04854434
180	0x3d2ab1a8	0.041673332
181	0xbce46852	-0.027881775
182	0xbd9877b3	-0.07444706
183	0x3d9ca39c	0.076483935
184	0xbdc1c902	-0.09462167
185	0xbd361fac	-0.0444638
186	0xbd8488b3	-0.06471386
187	0x3d88a59a	0.06672211
188	0xbdf84a2e	-0.12123524
189	0xbc0a3bb8	-0.00843709
190	0xbd000cbe	-0.031262152
191	0xbcc28fbe	-0.023750182
192	0xbe204379	-0.15650739
193	0x3d590776	0.05298563
194	0xbe4462bd	-0.1917829
195	0x3e2e89c1	0.17044736
196	0x3e97a32e	0.29616684
197	0xbd544ea2	-0.051832803
198	0x3e1ba989	0.15201391
199	0x3e735c55	0.2376569
200	0x3e3bcf77	0.1834086
201	0xbdc3e7fc	-0.09565732
202	0x3e4142ca	0.18873134
203	0x3e0e1809	0.13876356
204	0x3d62dbda	0.055385448
205	0xbe4bbf61	-0.19897224
206	0x3eb0d42b	0.3453687
207	0x3eabafbc	0.33532512
208	0xbe9bb09b	-0.30408177
209	0xbe251c42	-0.16124061
210	0xbdf5cc3e	-0.12001847
211	0x3e75e96f	0.24014829
212	0x3eaad6fb	0.33367142
213	0xbe63aa8f	-0.22233032
214	0xbe52dd22	-0.20592168
215	0xbeca58fe	-0.3952102
216	0xbe2d7823	-0.1694036
217	0x3e73f220	0.23822832
218	0x3db79c2d	0.08965335
219	0xbe4539f0	-0.19260383
220	0x3eb43388	0.35195565
221	0xbc6d6c0a	-0.014491091
222	0x3edc53d1	0.43032697
223	0xbde77b9f	-0.11302876
224	0x3dbb354a	0.091410235
225	0xbe16b230	-0.1471641
226	0xbd83f523	-0.064432405
227	0xbe82cd5c	-0.25547302
228	0xbe455be5	-0.19273336
229	0x3dbd6b58	0.0924899
230	0x3c16f8e3	0.009214613
231	0xbd110a4f	-0.03541022
232	0xbbc4dffe	-0.0060081473
233	0x3e82a680	0.25517654
234	0x3ee255b2	0.44206005
235	0x3dab4a3e	0.0836377
236	0x3ce04787	0.027377857
237	0xbcb4a064	-0.022049136
238	0xbda1a85f	-0.07893442
239	0x3d453659	0.048147533
240	0xbe528e54	-0.20562106
241	0xbe753fbb	-0.23950092
242	0x3d48d0a3	0.049027096
243	0x3d57dea1	0.05270255
244	0xbe220438	-0.15821922
245	0xbef71c41	-0.48263744
246	0xbcf12d49	-0.029440539
247	0x3dd9af2b	0.10629114
248	0x3cb168d3	0.02165643
249	0x3eb004cd	0.34378663
250	0x3e4763d6	0.19471678
251	0x3e129cf9	0.14317693
252	0x3dcbf2de	0.099584326
253	0x3d98de38	0.0746426
254	0xbdbcbbbe	-0.092154965
255	0x3c40a750	0.01175864

layer2.bias f4 [64]
0	0x3e3509f0	0.17679572
1	0x3a92778d	0.0011174545
2	0x3b93a2bb	0.004505483
3	0x3d41d173	0.047318887
4	0xbe013eac	-0.12621564
5	0xbd328968	-0.043588072
6	0x3d9d9ad6	0.07695548
7	0x3c26a37e	0.0101708155
8	0x3e2b6ffd	0.16741939
9	0x3ddf75ea	0.10911162
10	0x3d7cb9cc	0.061700627
11	0xbd892df9	-0.06698222
12	0x3e7fcce1	0.24980499
13	0xbdc9bea2	-0.098508134
14	0xbd9258d5	-0.071458496
15	0x3d825a15	0.06364838
16	0xbdc7d235	-0.09756891
17	0x3dc50b01	0.096212395
18	0xbd1763c8	-0.036960393
19	0xbe1f960a	-0.15584579
20	0xbd87a2fd	-0.066228844
21	0xbcde4d10	-0.027136356
22	0x3da49adf	0.08037352
23	0x3c89124c	0.016732357
24	0x3de54582	0.11194898
25	0xbc11c366	-0.008896684
26	0x3ba37f5f	0.004989549
27	0x3deb1da8	0.11480266
28	0xbda44109	-0.08020217
29	0xbd9eeeb4	-0.07760373
30	0xbd946b31	-0.07247008
31	0xbda12407	-0.078682
32	0x3d1d78a9	0.03844515
33	0x3d7885a5	0.06067433
34	0xbd701675	-0.058615167
35	0xbe3e152b	-0.18562762
36	0x3e1f4c53	0.15556459
37	0x3ced811f	0.028992234
38	0x3e43489a	0.19070664
39	0x3e78cd3d	0.24297042
40	0xbca55a4c	-0.020184658
41	0xbd4d70b0	-0.050156295
42	0xbb902793	-0.004399249
43	0x3e540c2c	0.20707768
44	0xbe01900f	-0.1265261
45	0xbe0b77f5	-0.13619979
46	0x3de9820d	0.11401758
47	0xbc8b3245	-0.016991744
48	0xbc54ecbb	-0.012995894
49	0xbd90522d	-0.07046924
50	0x3da613e8	0.081092656
51	0xbd7f90af	-0.06239384
52	0xbd92510b	-0.07144364
53	0x3e1a3a1f	0.15061234
54	0x3daafce7	0.083490185
55	0x3cb96666	0.022631835
56	0xbd0727f8	-0.0329971
57	0x3c815e18	0.015791938
58	0xbd0ef2e2	-0.0348996
59	0xbdb59e09	-0.088680334
60	0x3da63725	0.08115987
61	0xbc854d7c	-0.016272299
62	0x3d0f4b8d	0.03498416
63	0x3e4d883d	0.20071502

layer3.weight f4 [4, 64]
0	0x3c43eded	0.011958581
1	0x3eacae0d	0.3372654
2	0xbc1d3fab	-0.009597699
3	0x3e27f759	0.1640295
4	0x3e2e7ade	0.17039058
5	0xbdebc001	-0.11511231
6	0xbca92360	-0.02064675
7	0x3b3348ed	0.00273567
8	0x3e6a5c7f	0.22886847
9	0xbdaa38e7	-0.083116345
10	0x3e1ca76d	0.15298243
11	0x3e5c31d5	0.21503384
12	0xbb70282a	-0.0036645033
13	0x3d90bd42	0.07067348
14	0x3ccd0454	0.025026478
15	0xbe016d35	-0.12639315
16	0xbd8d98aa	-0.06913884
17	0xbd365a8f	-0.044519957
18	0xbd4baa8e	-0.0497232
19	0xbddde519	-0.108347125
20	0xbd99d58e	-0.075114354
21	0xbc818280	-0.015809298
22	0x3c4c6112	0.012474315
23	0x3e6a73ad	0.2289569
24	0xbea2603d	-0.3171405
25	0x3dea0cf1	0.114282496
26	0xbd225869	-0.039635096
27	0x3e2f5cb4	0.17125207
28	0xbdacd8da	-0.08439799
29	0xbc187470	-0.009305105
30	0x3d0c29e7	0.03421965
31	0xbc22e544	-0.0099423565
32	0x3e084662	0.13308099
33	0x3e7004b0	0.23439288
34	0x3e05a6b0	0.13051867
35	0x3deb6a15	0.11494843
36	0xbc2554f0	-0.010091051
37	0xbda9b6ac	-0.08286795
38	0x3d52eca9	0.051495228
39	0xbaf6048e	-0.0018769668
40	0x3c6ea20c	0.014565002
41	0xbdc07535	-0.093973555
42	0xbe733410	-0.23750329
43	0x3dea4869	0.114395924
44	0xbbf0c9e5	-0.0073482865
45	0x3d1f29e0	0.038858294
46	0x3de4018e	0.11133109
47	0xbd56917d	-0.052384842
48	0xbd7eca9a	-0.062204935
49	0x3e722402	0.23646548
50	0x3d870c6a	0.06594165
51	0x3d8e4189	0.069460936
52	0xbdaee807	-0.085403495
53	0x3dabbe8f	0.083859555
54	0xbe587c80	-0.21141243
55	0x3e0edeb9	0.1395215
56	0x3d823b47	0.063589625
57	0xbd36e9ad	-0.044656444
58	0xbda0e98e	-0.07857047
59	0x3d0b0ab6	0.03394576
60	0xbd7c3867	-0.061577227
61	0x3db85f50	0.090025544
62	0xbca6c472	-0.020357344
63	0xbd5203e4	-0.05127324
64	0x3ebe8c95	0.3721663
65	0x3ec256e3	0.37956914
66	0x3d862a6d	0.06551061
67	0x3dbb0d78	0.09133428
68	0x3da49055	0.08035342
69	0x3d5255fd	0.051351536
70	0xbde0c37e	-0.10974787
71	0x3ea8bf66	0.32958525
72	0x3ea72407	0.32644674
73	0xbea4eba8	-0.3221104
74	0xbdbbefcf	-0.09176599
75	0x3ca348d8	0.019932196
76	0x3eb2176a	0.3478349
77	0x3dc5ad68	0.09652215
78	0x3d3647a7	0.044501927
79	0x3dca0b6f	0.09865462
80	0x3d4a708f	0.04942375
81	0x3e5746bc	0.21023077
82	0xbd8dceb8	-0.06924194
83	0x3d790214	0.060792997
84	0x3d9cfff2	0.07666005
85	0xbd8371e8	-0.0641821
86	0xbead6bd5	-0.33871332
87	0x3dd0c334	0.10193482
88	0xbe66a224	-0.22522789
89	0x3bd30262	0.006439493
90	0x3dbd4c4e	0.092430696
91	0x3e0b3925	0.13596018
92	0xbd4f1bd0	-0.050563633
93	0x3dc02afe	0.093832
94	0xbd9b4b48	-0.07582718
95	0xbd3e974a	-0.046531
96	0xbd2bbb86	-0.041926883
97	0x3e7aca26	0.24491176
98	0xbe8ce9eb	-0.27522215
99	0xbd9e439d	-0.0772774
100	0x3eb03296	0.34413594
101	0xbec5d4f9	-0.38639048
102	0x3e91035e	0.2832288
103	0x3e8ea8cb	0.27863154
104	0xbde1e9b6	-0.11030905
105	0x3ec21a03	0.3791047
106	0xbe18ef3d	-0.14935012
107	0x3eb7a9c4	0.35871708
108	0x3d984181	0.07434369
109	0xbc2b027d	-0.010437605
110	0x3ebe5f8e	0.37182277
111	0x3d34daff	0.044154163
112	0x3ebc27c9	0.36749104
113	0x3e7d13d4	0.24714595
114	0xbca61471	-0.02027342
115	0x3e9604e8	0.29300618
116	0xbc8346a6	-0.016024899
117	0x3ebcb6cc	0.36858213
118	0xbe024764	-0.12722546
119	0x3dc0efc4	0.09420732
120	0xbdb7303a	-0.08944745
121	0x3c07a2d1	0.008278565
122	0xbe29e3e3	-0.16590838
123	0xbdaaebea	-0.08345778
124	0xbe9fea0a	-0.31233245
125	0xbcda3c74	-0.026640154
126	0x3e82beb8	0.25536132
127	0xbea14b73	-0.31502876
128	0xbd3577e4	-0.04430379
129	0xbed1cd39	-0.40976885
130	0xbda9757d	-0.08274362
131	0xbf0be89b	-0.546518
132	0x3e2ac710	0.16677499
133	0xbdd94d0c	-0.10610399
134	0x3d83a640	0.06428194
135	0x3e2fd71d	0.17171903
136	0xbe1ae5d5	-0.15126736
137	0xbd6c0ab0	-0.05762738
138	0xbeedfee2	-0.46483523
139	0xbef7eecc	-0.48424375
140	0x3d763375	0.060107667
141	0x3c8e14a0	0.01734382
142	0x3dca650f	0.09882557
143	0xbd6092b7	-0.05482742
144	0x3dd7c60d	0.10535822
145	0x3e8e604e	0.2780785
146	0xbe117e83	-0.14208417
147	0x3c2ba8c3	0.010477248
148	0x3cc8d8be	0.024517413
149	0xbbbc0da0	-0.005738929
150	0x3df6ec52	0.12056793
151	0xbe310526	-0.1728712
152	0x3ef25271	0.47328523
153	0xbd4fac44	-0.050701395
154	0x3deb09af	0.114764564
155	0x3c9d1ff0	0.019180268
156	0x3ddfa3b9	0.109198995
157	0x3db213c2	0.08695175
158	0xbed13f94	-0.4086882
159	0x3dd4c273	0.10388651
160	0xbef55c72	-0.47922093
161	0xbe97ffca	-0.2968734
162	0xbc8b2fa6	-0.016990494
163	0xbe458b4a	-0.19291416
164	0x3db05340	0.08609629
165	0xbd453043	-0.04814173
166	0xbd34b5ad	-0.044118572
167	0xbe0d7a8a	-0.13816276
168	0x3d0267c8	0.031837255
169	0x3b90e97d	0.004422365
170	0x3e85fe25	0.2617046
171	0x3dbf154f	0.09330236
172	0xbdcfb53f	-0.10141992
173	0x3e05b66f	0.13057874
174	0xbc33a627	-0.010964907
175	0xbded614a	-0.11590822
176	0xbe5b804b	-0.21435659
177	0xbeb84493	-0.35989818
178	0xbd3d8497	-0.046269026
179	0xbeb07b73	-0.34469184
180	0x3d459cb5	0.04824515
181	0x3d81e4af	0.06342446
182	0x3e9ebda2	0.31004053
183	0x3dc336aa	0.09531911
184	0xbd1ab8ee	-0.03777402
185	0x3c92b9a1	0.01791078
186	0xbc7812f7	-0.01514124
187	0x3e00a10e	0.12561437
188	0x3e6c28cf	0.23062442
189	0xbf12bc83	-0.57318896
190	0xbd78c500	-0.06073475
191	0x3e8475ae	0.25871032
192	0xbf1d4fb6	-0.61449754
193	0xbe434ff0	-0.19073462
194	0x3dc59115	0.09646813
195	0x3e467dd6	0.1938394
196	0xbdb23f1a	-0.08703442
197	0xbdbf4c7b	-0.09340759
198	0xbd0ce9c8	-0.03440264
199	0xbf05d81f	-0.522829
200	0xbea2f0a2	-0.31824213
201	0x3eade848	0.3396628
202	0x3e1b65a5	0.15175493
203	0x3e65cd1e	0.22441527
204	0xbf078193	-0.5293209
205	0x3d2ba3cc	0.041904256
206	0x3e01613d	0.1263475
207	0xbdab74c1	-0.083718784
208	0xbc6c8db1	-0.014438079
209	0xbf008da1	-0.5021611
210	0x3dbd1752	0.092329636
211	0x3d97dcc5	0.07415155
212	0x3d354c57	0.044262256
213	0xbd2f8c48	-0.042858392
214	0x3eae1e44	0.34007466
215	0xbdfcbd53	-0.12340798
216	0xbdbd63d4	-0.09247556
217	0xbd82f996	-0.06395261
218	0x3dfdcc04	0.123924285
219	0xbe8514d9	-0.25992468
220	0x3d382e5b	0.044966083
221	0xbdb086d6	-0.08619468
222	0x3e6afcce	0.22948
223	0x3d9d9470	0.07694328
224	0x3e9a4890	0.30133486
225	0x3d31a102	0.04336644
226	0x3ec076fa	0.37590772
227	0x3d04c732	0.03241653
228	0xbf04561a	-0.5169388
229	0x3ea167c2	0.31524473
230	0xbee453ca	-0.44595176
231	0xbf095fad	-0.53661615
232	0xbd16aed5	-0.036787827
233	0xbe9e9d6b	-0.30979475
234	0x3dcf483f	0.10121202
235	0xbedd10cc	-0.43176877
236	0x3db1782c	0.08665499
237	0xbd57c807	-0.052680995
238	0xbeb5f3c1	-0.35537532
239	0xbd3203b9	-0.04346058
240	0xbec6b3b7	-0.38808987
241	0xbe9762f7	-0.29567692
242	0x3c8b2327	0.016984535
243	0xbde3eccd	-0.111291505
244	0xbd2d4e21	-0.042310838
245	0xbecfeaba	-0.4060877
246	0x3d0b73a6	0.034045838
247	0xbe7f452d	-0.24928732
248	0xbd412a31	-0.047159377
249	0xbdd5cf19	-0.10439891
250	0x3e81df9d	0.25365916
251	0xbd533185	-0.051560897
252	0x3e62098c	0.22073954
253	0x3e72eb6f	0.23722623
254	0xbf1208f1	-0.57044894
255	0x3e268d87	0.16264926

layer3.bias f4 [4]
0	0x3b70b1aa	0.003672699
1	0xbd6f45d3	-0.0584162
2	0x3e31399b	0.17307131
3	0x3c80ad24	0.01570756
