LunarLanderWeights/ppo_critic.pth (torch, 21862 bytes, 5 tensors)

layer1.weight f4 [64, 8]
000000 29 03 1b bf ec 9d 72 3e 20 73 20 be 11 af a6 3d
       -0.60551697 0.23693055 -0.15668917 0.0813886
000010 1d 9c ca 3e 22 67 fe 3d c0 19 90 be bd 44 f9 be
       0.3957223 0.12422015 -0.28144646 -0.48685256
000020 4f a1 ee 3e 6c ff c2 3d 03 2c 05 3f ea fa 3d be
       0.46607444 0.09521374 0.5202028 -0.18552747
000030 42 70 9a be 19 3a 97 bd 3f 3e 06 be 6b 71 a5 3d
       -0.3016377 -0.07384128 -0.13109683 0.080782734
000040 a1 6d c5 3e a8 23 6f 3e 52 83 3e 3f a5 88 10 3e
       0.38560203 0.23353446 0.7441913 0.14114626
000050 aa f4 c2 3e 18 63 58 be e5 be 90 3e 15 39 0d bf
       0.3807729 -0.21131551 0.2827064 -0.55165225
000060 37 ee 22 bf ed 32 8f bd 4d e0 7e 3f 9e be 69 3d
       -0.63644737 -0.06992135 0.99561006 0.057066552
000070 a9 c0 bf 3e 7d 6f a7 3c f9 6e dc ba 7f 1e 1d 3e
       0.37451676 0.020438904 -0.001681774 0.15343665
000080 32 cc 96 3e b8 a7 c9 3e da 2d e0 bd e5 17 da be
       0.29452664 0.39385772 -0.109462455 -0.42596355
000090 f6 19 5d be 28 61 12 be b2 bd ca be ba b0 8b bf
       -0.21591935 -0.14294875 -0.3959785 -1.0913308
0000a0 17 c4 ae be 1a 69 f6 3e d5 ca cd 3d 8f c1 df 3c
       -0.3413398 0.4812706 0.10048453 0.027313976
0000b0 f4 06 cd 3c 9e 3d c5 be bf d1 ee be 2f 5b 3a be
       0.02502773 -0.38523573 -0.466444 -0.18198846
0000c0 d6 37 52 3d 20 62 bd 3e c5 7e 89 3e e0 c0 a0 3e
       0.05132278 0.36988926 0.2685453 0.31397152
0000d0 f6 a2 bb 3c 86 85 c0 be 5c 88 90 be a8 a9 70 be
       0.022904854 -0.3760187 -0.28229034 -0.23502219
0000e0 fb 39 b4 be 37 09 c8 3e 8e a6 12 be 5e 20 4d 3e
       -0.35200486 0.3906953 -0.14321348 0.20031878
0000f0 0c 2b ae bd 3b 37 a4 be f0 b0 8c bd 56 c5 79 3d
       -0.08504304 -0.32073388 -0.06869686 0.06097921
000100 a6 46 be 3e 41 34 19 bd a0 a9 3b 3f d9 8c 10 3d
       0.37163275 -0.03740335 0.733057 0.035290573
000110 9c db 82 be 8c a8 04 be 30 00 94 be 86 f8 bf be
       -0.25558174 -0.1295492 -0.28906393 -0.37494296
000120 ed e2 d9 3d fb cf 64 3e 20 8f 60 3f a5 b8 76 3e
       0.10638986 0.22344963 0.8771839 0.24093874
000130 46 14 8d 3e c8 7a 5e 3e 6f 72 57 3e cb 6c f4 3c
       0.2755453 0.21726525 0.21039747 0.029837033
000140 67 60 30 3e 52 d0 b3 3e 27 a6 63 bc ff 0c 87 bc
       0.17224275 0.35119873 -0.013894594 -0.01648569
000150 d8 6c b6 be 1a a7 43 bd 64 32 7a be ce 2f 93 be
       -0.35629916 -0.047766782 -0.24433285 -0.2874741
000160 af cf 04 3e fa 7d 0d bd 16 ba 66 bd 6c 1c e9 3d
       0.1296985 -0.03454397 -0.05632981 0.11382374
000170 e0 df d4 3e 9c 49 49 3f 02 1a 8c 3e 23 e3 a4 3e
       0.41577053 0.78627944 0.27363592 0.32204542
000180 d4 b4 8f be 10 1a 2a 3f 48 94 7b 3e c7 c8 c4 3e
       -0.28067648 0.6644602 0.24568284 0.3843443
000190 ad 29 ab bc 35 73 2e be 3e 3d 87 be c7 b5 a4 be
       -0.020893896 -0.17036135 -0.26413912 -0.32169935
0001a0 29 58 4b 3d fa bf e6 3d 9b a0 b7 3d d6 cd e2 3e
       0.049644623 0.112670854 0.0896618 0.44297665
0001b0 63 58 44 3f 06 53 12 3e a9 03 a9 3e a6 c4 23 3f
       0.7669737 0.14289483 0.33010605 0.63971937
0001c0 06 55 a2 be 98 b4 70 3e d0 51 b2 bc 8e d3 38 3d
       -0.31705493 0.23506391 -0.021767527 0.04512363
0001d0 68 85 87 3e b8 37 5a 3e a7 eb 84 be 83 c8 d5 be
       0.26468968 0.21310318 -0.25961038 -0.4175454
0001e0 26 80 98 3e cb f5 73 3e 8b a0 1d 3f a8 8b d4 bb
       0.2978527 0.23824231 0.61573094 -0.006486375
0001f0 dd d7 48 be d0 b1 0f 3d fe bb 29 3e 5d 0e 28 bd
       -0.19613595 0.035081685 0.1657562 -0.041029323
000200 51 33 36 be a1 88 86 3e 0b 86 a1 3e 29 5a bb bd
       -0.17793013 0.26276115 0.3154758 -0.09148056
000210 7e c8 43 be 20 04 17 bf 4d 20 b5 3c 4c bc 3d be
       -0.1911945 -0.5899067 0.022110129 -0.18528861
000220 34 7c 62 be 53 e5 33 3f e2 a9 82 3e 13 e5 fd 3e
       -0.22117692 0.70271796 0.25520235 0.49588832
000230 9f 3e 84 3d 82 3a a6 be 51 13 11 bf 40 8e e3 be
       0.064572565 -0.32466513 -0.566701 -0.44444466
000240 68 e8 6f 3f e3 96 fc be 25 8a a0 bc ac b9 2d be
       0.93714 -0.49333867 -0.019597122 -0.1696536
000250 07 4f 2e bf c8 0b f8 bd a9 64 8f 3d dc 78 d3 bb
       -0.68089336 -0.12111622 0.07001621 -0.0064536165
000260 0c 8b 43 bf cb a9 cd bd 67 fb 94 be 4c 11 16 bf
       -0.76384044 -0.10042151 -0.29098055 -0.5862014
000270 d3 44 f7 3e aa ea 9a 3e 9b 64 67 bd 0e 66 69 bd
       0.48294696 0.3025716 -0.05649243 -0.056982093
000280 c6 f5 03 bf dd c7 f0 3e 7c ba 8a 3c ec cf 69 3f
       -0.51546896 0.47027484 0.016934626 0.9133289
000290 27 5e 31 bf c5 fd bc 3e 10 cf e1 bd c2 bf 67 3e
       -0.6928429 0.3691236 -0.11025822 0.22631744
0002a0 57 6b 53 3e 84 48 2a 3e f6 ec 34 3f 8a 3a 55 3d
       0.20646416 0.16629225 0.70674074 0.05205778
0002b0 94 ca 9f be 40 bb a9 3e 67 ef 06 bf 06 10 1d bf
       -0.31209242 0.33150673 -0.5270905 -0.61352575
0002c0 56 70 cf be b7 0a c9 3e 66 59 bf 3e 3c 46 95 3e
       -0.40515393 0.39265987 0.37372893 0.29155147
0002d0 a6 dc 9b bf 0f 3e 93 be 77 46 d1 be 26 7e 11 bf
       -1.2176712 -0.28758284 -0.40874073 -0.5683311
0002e0 31 d2 26 bc 0d dc d0 3e 16 23 2a 3e 13 61 11 bb
       -0.0101819495 0.40792885 0.16614947 -0.0022183105
0002f0 ab 32 ad be f7 3e 5e bd cc 57 98 be 30 bc 06 bf
       -0.3382772 -0.054259267 -0.29754484 -0.526309
000300 ef 63 ae be a2 e8 46 3e 81 5d d6 3d 99 11 d9 3d
       -0.34060618 0.1942468 0.10467053 0.105990596
000310 fb 6c 18 3e d5 87 ef be ac 4c bc be 8b b2 68 be
       0.14885323 -0.4678332 -0.36777246 -0.22724359
000320 6a d4 12 3d 3c d0 d6 3e 0a 89 20 be 1f a2 81 bd
       0.035847105 0.41955745 -0.15677276 -0.0632975
000330 3a 76 81 be 56 1e b8 be 17 19 65 bf 4d 5d 80 bf
       -0.25285512 -0.35960644 -0.8949141 -1.0028473
000340 9a ba f8 bb dd b6 91 bc 8b 6d ab 3d 1b 3d 44 be
       -0.007590604 -0.017787391 0.08370503 -0.19163935
000350 41 3f f2 be 90 05 99 be 49 81 3c bf 2f 12 a7 bf
       -0.47313884 -0.29887056 -0.73634773 -1.3052424
000360 26 d7 0a 3f dc 43 ab 3c 60 cc 14 3f ee 9b ff 3d
       0.5423454 0.020906381 0.5812435 0.12480913
000370 52 3b 4e bc 95 dd 53 be ec de 27 3d a9 58 3b be
       -0.012587385 -0.20689996 0.04098408 -0.1829554
000380 d7 f8 51 bd 36 62 79 bf 8d b1 80 be b2 3e 94 bd
       -0.051262703 -0.97415483 -0.2513546 -0.07238521
000390 65 aa 18 be bf d4 00 bf 1e 41 c3 bd ec 3a ce 3c
       -0.1490875 -0.50324625 -0.095339045 0.02517458
0003a0 06 64 cc 3e a4 e7 cd 3d 4c 8f 20 3f 61 8d c2 bd
       0.39920062 0.100539476 0.62718654 -0.09499622
0003b0 8a 12 21 be 7d 2c 8f be 5e 20 20 bf ba 96 25 bf
       -0.15729728 -0.2796363 -0.6254939 -0.64683115
0003c0 d2 f4 b0 be 54 07 ca 3e a5 ab c5 3e ad eb cd 3e
       -0.34561783 0.39458716 0.38607517 0.4021887
0003d0 58 88 67 3e b6 b1 06 bf 95 17 6e bd 2d ec 23 bf
       0.22610605 -0.52614915 -0.05812796 -0.6403225
0003e0 49 1c 7a 3e 07 28 fd 3e 8e 4e 91 be 6b f8 ac 3d
       0.24424852 0.494446 -0.28380245 0.084458195
0003f0 d0 1c 82 be e5 be 9d bd 47 a9 b9 be 21 50 b1 be
       -0.25412607 -0.07702426 -0.3626196 -0.34631446

layer1.bias f4 [64]
000000 5b 8e b3 3e 43 74 74 3e 82 75 1b 3e 09 09 1b 3e
       0.35069546 0.23872475 0.15181544 0.15140165
000010 e8 f0 62 3e a5 9f f3 3d b0 fd 49 3e 68 08 86 3e
       0.22162211 0.11895684 0.1972568 0.26178288
000020 0e d0 a0 3e 3c 5f 90 3e 95 56 95 3e 73 28 b5 3e
       0.31408733 0.28197658 0.2916762 0.35382423
000030 26 fc 26 3e 94 e8 ea 3d ae ad 33 3e 61 c4 19 3e
       0.16307124 0.11470142 0.17546722 0.15016319
000040 f2 28 aa 3e 59 e2 68 3e 01 e5 32 3f 5c 69 87 3d
       0.33234364 0.22742595 0.6988068 0.066118926
000050 5d fc fe 3d 95 14 8e bd 9d 32 a6 3d 2c db bf 3e
       0.12450478 -0.069375195 0.081151225 0.37471902
000060 cf 24 be 3e 20 40 12 3e 9f 1b af 3e 9c 64 60 3e
       0.37137458 0.14282274 0.3420076 0.2191338
000070 88 d2 85 3e e8 36 19 3e 9e 37 a4 3e 60 61 86 3e
       0.26137185 0.14962351 0.32073683 0.26246166
000080 b3 44 e7 b8 f3 da c6 3e cc 81 ed 3d 3e 37 d1 3e
       -0.000110277346 0.3883892 0.115970224 0.4086246
000090 da fe c1 3e 25 d9 d8 3d b4 78 31 3e 11 06 a8 bd
       0.3788975 0.10588292 0.17331201 -0.08204282
0000a0 ba 5b dd 3b ee 57 bb 3e e4 4d 5d 3e 64 ab 10 3e
       0.0067553194 0.36590523 0.21611744 0.1412788
0000b0 48 b1 d4 3e 65 8f de 3e cb f1 f6 3e d9 3f 4e 3e
       0.41541505 0.43468776 0.48231348 0.20141543
0000c0 0c 6b a8 bd 5a 35 02 bd a6 50 c8 3e 26 ae a2 bd
       -0.082235426 -0.03178916 0.3912403 -0.079433724
0000d0 dc 2e 71 3e 14 2b f4 3e fd f4 17 3c 6c 9e 8b 3e
       0.23553032 0.47689116 0.009274718 0.27269304
0000e0 db ff d3 3d cf ab b6 bc a6 dc 4d 3e 27 3b be 3e
       0.10351535 -0.022298722 0.20103702 0.37154505
0000f0 6f 63 74 3e 92 4a b3 3e 61 85 bb 3e 04 69 ba 3e
       0.23866056 0.3501783 0.36625198 0.36408246

layer2.weight f4 [64, 64]
000000 4f f1 9b bd d7 66 bf 3e 09 5e 33 bf 80 8b d6 3d
       -0.07614385 0.37383148 -0.7006536 0.10475826
000010 7a 67 6f 3e 18 7d 89 3e 9e 88 96 3d 2a 05 08 3f
       0.23379317 0.2685325 0.073502764 0.5313288
000020 03 e9 73 bd 21 55 6d bf 4a 93 1c 3e 8b 74 54 bf
       -0.05954839 -0.9270802 0.15290561 -0.8299033
000030 18 1f 5a be fe 48 4f bf dd 42 8e bd 0f 9f 90 be
       -0.21300924 -0.8097075 -0.06946347 -0.28246352
000040 fb e0 86 3e 69 b1 54 be 9e bd 47 bf 1e aa 7f 3e
       0.2634352 -0.20770802 -0.7802371 0.24967238
000050 43 11 32 3f 56 05 ac bd 06 b4 35 3f 42 a9 72 3c
       0.6955759 -0.08399455 0.7097782 0.014810862
000060 2b f9 1a 3e 1f d9 7a 3e 58 d4 ee 3d 33 4b 4b bd
       0.15134113 0.24496888 0.11661595 -0.049632262
000070 4b 3f 68 bf 21 3f b7 bd f9 7b 81 be 1f 8c 24 3e
       -0.9072158 -0.08947588 -0.25289896 0.16069077
000080 16 2b f8 3d 4c e7 86 3d 6a 64 b5 be 26 f5 bc 3d
       0.12117593 0.06587085 -0.35428172 0.09226446
000090 5e cd f3 3d 58 84 17 3e 25 55 ba 3e 7e 12 14 3f
       0.11904405 0.14796579 0.36393085 0.57840717
0000a0 43 3c 37 bc 8e 52 54 bf a8 21 55 3c 80 17 53 be
       -0.011183801 -0.8293847 0.013008513 -0.20614433
0000b0 ca 7a 1a be 83 b9 84 3e 42 eb 78 3e 41 8e e8 be
       -0.15085903 0.25922784 0.24308494 -0.4542103
0000c0 9c ce eb 3c 18 df ae be 7a 03 04 3e 9e fb b1 be
       0.028785042 -0.34154582 0.12891951 -0.3476228
0000d0 e6 22 86 3d b4 0e 10 3e c4 a1 5f bc 77 7d 9e bb
       0.06549625 0.14068109 -0.013649408 -0.004836734
0000e0 bb 2b 10 bf e0 db d5 3d 4f f6 e5 bd 18 24 48 3f
       -0.5631673 0.104423285 -0.1122862 0.78180075
0000f0 66 e2 d9 3e fc fa 7a bd a0 80 ae bc dd 9d a4 3e
       0.4255554 -0.061274514 -0.021301568 0.3215169
000100 b1 64 04 be 3c ac c4 be 73 88 18 3f 81 26 de be
       -0.12929036 -0.38412654 0.59583205 -0.4338875
000110 80 15 94 3e 46 75 ec bd 9d 62 21 3e b5 0d b6 be
       0.28922653 -0.11545806 0.15760274 -0.35557333
000120 ba 4f dc 3e 22 57 fb 3e 05 03 08 3e 2d 73 d0 3d
       0.43029577 0.49089915 0.13282402 0.10178218
000130 d3 f5 82 3e bb 54 97 3c ce 3e a2 bc 4a e9 9d 3e
       0.25578174 0.01847302 -0.019805338 0.30842048
000140 91 91 96 bc b0 b5 2a 3e d7 8b 94 3f 36 5b 2a bf
       -0.018379958 0.16670871 1.1605176 -0.66545427
000150 02 52 5c bf 00 7d 71 be 9d 09 00 bf c0 bf 2f 3e
       -0.86062634 -0.2358284 -0.5001467 0.1716299
000160 ba e0 89 3d b2 fd ab 3d ff fc 05 3e 54 1a a5 3e
       0.06732316 0.08397998 0.13084792 0.3224665
000170 61 ef be 3e cb f0 b3 3e ca 82 a5 3e 5e 7a 8d 3d
       0.37292007 0.35144648 0.32326347 0.06908105
000180 38 11 bd 3d 31 db be 3c 7f a2 67 3e 2b b5 c4 3d
       0.092318 0.023297878 0.22620581 0.096048675
000190 be f4 d5 3e 4a ef 75 be 2c 93 81 be 37 86 e5 be
       0.41788286 -0.24017063 -0.25307596 -0.4482896
0001a0 10 b8 17 3e c9 7a 1a 3f f7 99 b5 3e be 87 04 3f
       0.14816308 0.60343605 0.35469028 0.51769626
0001b0 ea 05 01 3f 99 6c 4c 3e f4 1c 82 3b b8 f4 c2 be
       0.5039965 0.19963302 0.0039707366 -0.3807733
0001c0 9c cd 82 3e 61 21 96 3e 2b 21 4b 3e 0c 9d 6b 3e
       0.25547493 0.2932234 0.19836871 0.23009127
0001d0 bb 30 19 bf ac ad 0a 3d 05 f7 1a 3e fc a9 62 be
       -0.5983998 0.033857033 0.15133293 -0.22135156
0001e0 3e b3 ce 3d 9b d0 d9 bd d1 fc f5 3e 74 80 2a bf
       0.100927815 -0.106354915 0.48044446 -0.66602254
0001f0 3a 2e b3 be 99 0b cf 3e 43 0b bf be 12 4d 9f be
       -0.34996206 0.40438536 -0.3731328 -0.31113487
000200 88 0b a2 3d 5e c3 dc 3e 42 74 2b bf e9 b8 85 3d
       0.07912356 0.43117803 -0.6697427 0.065294094
000210 88 fe 5d 3d d5 31 a4 3d d2 b5 c3 3c 06 97 c4 3e
       0.054197818 0.08017317 0.02389041 0.38396472
000220 c0 59 fa bd bc 1e 40 bf 5e 59 0f 3e 75 60 2d bf
       -0.1222415 -0.75046897 0.13998935 -0.67725307
000230 21 38 00 be 4f 74 3f bf 90 a4 bb 3d 0c f1 86 be
       -0.12521411 -0.7478685 0.09162247 -0.2635578
000240 81 7d 5f 3e 89 cf 82 bd b9 bf 6a bf eb e8 88 3e
       0.2182522 -0.063872404 -0.91698796 0.26740202
000250 6e 4d 30 3f ec e1 23 3d 68 69 52 3f 03 55 36 3d
       0.6886815 0.040010378 0.8219209 0.044514667
000260 59 f1 09 3e 40 b8 01 3e 52 3c c5 3d a5 ff 94 bd
       0.13470973 0.12667942 0.09630646 -0.07275323
000270 09 e3 82 bf cd cc 49 be 44 89 00 be 95 e5 0d 3e
       -1.0225536 -0.19707032 -0.12552363 0.1385711
000280 2d fa 43 bd 6e 2d 38 3e 26 94 a1 be b7 d8 63 3e
       -0.047846008 0.1798608 -0.3155834 0.22250639
000290 ad d6 a5 3d 1f 94 ed 3d 6f 22 ab 3e 73 ed 26 3f
       0.08097587 0.116005175 0.33424708 0.6520607
0002a0 af 22 92 3c 63 26 49 bf d6 92 99 bb fe d8 6b be
       0.017838804 -0.785742 -0.0046866937 -0.23031995
0002b0 6f 4b e2 bd 45 70 4f 3e e0 33 3c 3e 7b f1 f3 be
       -0.11049544 0.20257671 0.18379164 -0.47645172
0002c0 72 3e 7f 3c 84 eb 17 be e0 48 d6 3d c7 00 f6 be
       0.015578853 -0.14835936 0.104631186 -0.48047468
0002d0 11 20 35 3e fc d9 40 3e b4 41 ba bc 22 6b d7 bd
       0.17688014 0.18833154 -0.022736408 -0.10518481
0002e0 b6 ac 28 bf a9 67 00 3d 48 45 a4 be 7d ce 22 3f
       -0.65888536 0.031348858 -0.32084107 0.63596326
0002f0 6f 29 0a 3f 54 42 0c be b9 9d 14 be 53 2f e1 3e
       0.5396947 -0.13697177 -0.14513291 0.43981418
000300 c8 da 7b 3e 27 a9 68 be b8 1b cb be 6e 9f 25 3f
       0.24595177 -0.22720776 -0.39669585 0.64696395
000310 73 27 6f 3e 1a 0e ae 3e 97 fe 99 be a9 76 8e 3e
       0.23354892 0.33995134 -0.3007705 0.27824906
000320 2f 30 a9 be 7e b6 3b be 09 1a 53 3e 1e 0e 01 3f
       -0.33044574 -0.18331334 0.206154 0.50412166
000330 77 80 5a 3a 5d 17 22 3f 6c dd b7 3e 23 03 af be
       0.0008335183 0.633169 0.3591112 -0.3418208
000340 30 75 3f 3e 21 aa 95 be 65 40 92 bf 57 46 2f 3f
       0.18697047 -0.2923136 -1.1425902 0.68466705
000350 2a 4d 76 3f ba 13 2e 3f 58 65 71 3f 1a 9e 46 3e
       0.96211493 0.6799885 0.94295263 0.19396248
000360 d0 38 a9 3e 15 a9 9b 3d 37 55 c0 3e df 45 ae be
       0.33051157 0.07600609 0.37565014 -0.34037682
000370 cc 57 0c 3e 1d 77 a9 be 41 3f a7 be 2a e5 01 be
       0.13705367 -0.3309869 -0.32665446 -0.12685075
000380 13 6b 13 3e 17 a1 38 3e b1 c5 4b 3e 4a 34 25 3d
       0.14396314 0.18030201 0.19899632 0.04033307
000390 00 88 3b bd 5b bf d1 3e 3e 39 fd 3e bc fd 31 3f
       -0.045783997 0.40966305 0.49457735 0.6952779
0003a0 f1 ac 51 3e b7 88 81 be 83 9a 13 be dd 28 dc be
       0.20476128 -0.25299618 -0.1441441 -0.42999926
0003b0 90 5c 17 bf 51 f7 4f 3e 48 ae 11 3c ce 91 46 3f
       -0.59125614 0.20309187 0.00889165 0.7756623
0003c0 57 93 fb bd 2a 67 06 3e 0a 67 b9 bc e1 2e 70 3e
       -0.12283962 0.13125291 -0.02263214 0.23455383
0003d0 d2 13 77 3f a9 df 94 3e 35 0d 88 3d e8 bd f4 3e
       0.9651462 0.2907689 0.06643144 0.47801137
0003e0 07 49 84 3e 36 f3 ab bd b9 9c 89 be 30 3f 65 3f
       0.25836965 -0.08395998 -0.26877382 0.8954954
0003f0 87 c6 e7 3e 48 b0 b0 be 68 ca 9c 3e f1 b4 9b 3d
       0.45268652 -0.34509492 0.30623174 0.07602871

layer2.bias f4 [64]
000000 99 8a 3b bd 7f 07 2e 3e 7a ae dd 3d fb 1c da 3d
       -0.045786474 0.16995047 0.108242944 0.10650059
000010 f1 4a 05 3e 6b 21 b8 3d 02 33 53 3d 57 39 31 3d
       0.13016869 0.08990749 0.051562317 0.043267574
000020 6f 94 cd 3d 22 9d 49 3e e6 97 e0 3c d2 aa 70 3d
       0.10038077 0.19688848 0.02741618 0.058756657
000030 8c 1d be 3c d9 1f 06 bd 35 5a e8 3d cb 73 3e bd
       0.023207448 -0.032745216 0.113453306 -0.046497148
000040 70 cd d0 3d 4c 95 0d 3e 95 1f 3c 3e 5a 01 07 3e
       0.10195434 0.13826483 0.18371423 0.1318411
000050 d0 6f 48 3e f3 87 2c bd 84 17 03 3e f1 8d 5f 3e
       0.19573903 -0.04212184 0.12801939 0.2183149
000060 36 b8 28 be 93 38 77 3d 9f e2 05 3d 52 e6 87 bd
       -0.16476521 0.060356688 0.032686826 -0.06635727
000070 ce ad 25 3d f0 66 18 3e 3c 74 d2 3d ad 86 60 3e
       0.040448956 0.14883018 0.10276076 0.21926375
000080 b6 9e 3a 3d 49 60 2c 3e 24 66 d6 bc 62 55 e0 3c
       0.045561515 0.16833605 -0.026171751 0.027384464
000090 c5 27 89 3d 93 ee 2f 3d 48 90 c7 bc 0c 56 5c 3e
       0.066970386 0.04295213 -0.02436079 0.215172
0000a0 e4 c3 e8 3d 11 17 30 3d 8a 08 69 3e 4b 26 0c bc
       0.11365488 0.042990748 0.22757164 -0.008554052
0000b0 1e b0 f8 bd 58 8a 67 3a 87 46 30 3e 28 50 88 3d
       -0.12142967 0.00088325655 0.17214404 0.066559136
0000c0 85 84 96 3b 0b 65 95 bd f7 1f 36 bd 4f 56 e8 3d
       0.0045934343 -0.07294663 -0.044464078 0.11344587
0000d0 ff 90 49 3e b0 a6 7b bc 6c 1c 9c bc c0 27 56 3e
       0.19684218 -0.015359566 -0.019056521 0.20913601
0000e0 0d 49 8d 3d 11 44 ea 3d 02 aa 0a bd 8b 0a 85 3d
       0.06898699 0.11438764 -0.03385354 0.064961515
0000f0 9d 3c db 3d 6b 94 e4 3d d2 a1 17 3d fc 19 b2 bd
       0.107049204 0.11161121 0.03701956 -0.086963624

layer3.weight f4 [1, 64]
000000 b7 01 d9 be 93 cb 03 3f 62 47 d4 be 15 91 43 bf
       -0.4238412 0.51482505 -0.4146071 -0.7639325
000010 b2 7e 10 bf af db 16 bf a9 e5 a2 3e 84 84 ee be
       -0.5644332 -0.5892896 0.31815842 -0.46585476
000020 fc e1 17 3f de 52 1b 3f 64 6b aa be 33 da 8a 3e
       0.593292 0.6067332 -0.33285058 0.27119598
000030 f2 82 20 bf 2e 78 d5 3e 78 2d 27 bf 8e 00 05 bf
       -0.62699807 0.41693252 -0.65303755 -0.5195397
000040 e0 3e a3 be d6 be 99 be b4 dd 21 3f bf 50 f0 3e
       -0.31883907 -0.3002841 0.6322892 0.46936604
000050 73 de 15 bf 22 74 05 3f 15 6c c0 be 84 1c 09 bf
       -0.58542556 0.5213033 -0.3758246 -0.53559136
000060 0d 2c 0d 3e d3 8f 9c 3e 42 be b1 be 00 61 3b 3d
       0.13786335 0.3057848 -0.34715468 0.045746803
000070 25 69 b7 be e9 70 9f be 58 a4 44 bf c4 0f 36 bf
       -0.35822406 -0.3114083 -0.7681327 -0.71117806
000080 5c 8b ab 3e bb df 12 bf c9 f2 aa be 3c 5f de be
       0.3350476 -0.57372636 -0.33388355 -0.43432033
000090 83 ff 91 be 41 c4 39 bf aa 6e f5 be 06 1c 23 3f
       -0.28515252 -0.72565085 -0.47935992 0.63714635
0000a0 53 35 10 3f c9 be d6 3e 9f 97 3e bf 79 9c f5 be
       0.56331366 0.41942433 -0.74450105 -0.47970942
0000b0 9a b9 13 3e c6 26 c4 3e d7 89 22 bf b6 cc b6 be
       0.1442627 0.38310832 -0.63491577 -0.35703057
0000c0 77 c7 28 bf 67 b2 e7 3e 8c d8 09 bf 6e 41 03 3f
       -0.6592936 0.45253298 -0.5384605 0.5127171
0000d0 3c 95 08 3f 36 8c 01 3f f2 fd c1 be 3b 0c 2b bf
       0.53352714 0.5060457 -0.37889057 -0.6681554
0000e0 35 e2 c7 3e e8 61 c4 be a7 a7 82 3e 45 8c 9e be
       0.3903977 -0.38355947 0.25518534 -0.30966392
0000f0 f1 ee 09 3f 79 d5 02 bf 15 5e 07 3f 56 97 10 3f
       0.5388022 -0.51106983 0.5287793 0.5648092
